actor_weights.pth (torch_old, 531482 bytes, 10 tensors)

fc1.weight f4 [400, 24]
00000000: 7629 ddbe 6031 533f afde 00bf 940a 8d3e
00000010: 79d3 babe 719d 123f be87 08bf 338a 8a3e
00000020: 0a07 4ebf f0e7 9b3d c1e3 9a3d 28df cebf
00000030: e980 0fbd cddb 963f f300 993d 33f9 d7bf
00000040: f798 f4bf c2d3 bc3e bdc5 60bf 2145 893f
00000050: 91d5 b63e bcff bb3f 3483 68bf 9143 863f
00000060: 47a7 773e 6f8b 103f 835e aa3e f5d7 d8be
00000070: d606 39be f932 2dc0 49ba 9f3e a1db ecbe
00000080: d09a 2ebd 0945 f43e 35f5 c73e 6761 64bf
00000090: 54a3 eabd f390 bfbf 606b ce3e 0366 59bf
000000a0: 9c06 efbe 9dd6 02bd 86cd 403f 8a7a 15c0
000000b0: db26 c13c 3cd9 893d e052 3b3f f76b 16c0
000000c0: 845e 2340 f711 a4bf 18bd 3bbc 6864 c53f
000000d0: c7dd 9d3e 66cd e5be e324 7dbd 44bc c83f
000000e0: f9da fb3f a1c7 c5bf c0a4 8a3d df07 f2be
000000f0: 9a55 3e3e 1eec 3fbe 6b0e 8f3d 98ee 05bf
00000100: 6e55 9b3f c7b2 65bf 79d4 46be 86a8 fe3f
00000110: 5d47 493d 0278 3d3d 28ce 50be ade3 0340
00000120: cd23 b7bf 72e8 cfbf 95df 5e3d 08a2 7abe
00000130: 220f 27be cf2d 8f3f 7ac4 a03d a262 35be
00000140: 8082 80bf 39ad e8bf 18d3 623e ad86 45be
00000150: aae3 c33e 07bf f33f 9364 813e f964 41be
00000160: 98d0 96bf 18c3 02c0 a448 a4be 1206 92bf
00000170: 527a 423f 98a4 fd3f 995f a6be efe1 92bf
00000180: 9d44 54bf 30ed c5bf 12f4 2a3d 0104 073f
00000190: 6edd d43f dddb c73e 970e a7bc e4b9 0c3f
000001a0: 0bdf 96bc c42c 54bf f8d3 10be 6d20 5dbe
000001b0: 063b e63d 0e48 b23f b143 9fbd aee0 6bbe
000001c0: 33ae 943e ce45 56be bd07 e3ba 363c 6b3e
000001d0: a371 ecbf c800 3440 5a2a 92bd df99 8e3e
000001e0: a6e4 833f e31d 6540 62e9 cdbd 47ff fa3e
000001f0: 8383 8a3f daed a3bf 5da9 07be f927 053f
00000200: 94c9 993f b76d 4c40 6936 4abe e563 74bf
00000210: 4041 353f 642c 983e 6c72 53be 2928 6bbf
00000220: 66b0 8f3f 8aac 0640 9a5e dfbe ed5b 703f
00000230: b74a cebd 788b a43f 0a20 cebe 32cd 793f
00000240: 913c 1c3f d458 4040 e8bc f8be b85c 713f
00000250: fc33 253d 443f a33c 02e7 fabe 7e63 783f
00000260: 1bd7 2ec0 1d0e f03f 8fdf 2dbe b799 8abf
00000270: a817 033e 851d 7e3f 44ad d2bd 7670 88bf
00000280: f889 10c0 b7e2 593d 019f 13bd 336c 523f
00000290: 1583 6ebd 0bea d23f 405e c5bd 7eb6 533f
000002a0: e149 a13e 2ed3 c63e 1678 c93d c56a 2240
000002b0: 9fac d13f db68 413f b4f5 403d aab9 1e40
000002c0: 51b1 13bd 53cb fa3e 9941 643d b2de 263f
000002d0: 95c0 733f 83f1 003f 0459 be3d a3a1 2d3f
000002e0: 1daa 1abf c4fc ab3e 7340 403e 29af 0fbe
000002f0: 4124 2b3e baea 003f 5ef6 193e dbbc b4bd
00000300: ba0f da3f 2ab5 533f 6ac6 b1bd 5b34 e8be
00000310: 2f38 c63e 5dca 1fc0 fa09 5bbd 180e eabe
00000320: e145 af3f 1c40 983f e40c b03d d0b9 d8bd
00000330: 59f5 c1be 4e28 a4bf 9384 423d a8c0 d8bd
00000340: 2249 0140 7f28 b93f 3abb fe3e e91c 653f
00000350: 1265 b9bf 47d2 be3e aa28 ee3e fc65 5f3f
00000360: 2753 0cbd 9c4c 813f e9e1 8abe 735c d13e
00000370: 8b9c 8c3e 69c7 9a3e fdb0 91be 9ed6 de3e
00000380: a10f cc3f 37e5 8c3f a89c c9bd 9793 7f3f
00000390: cdef 9cbd a3df 0b40 e097 8abd 8bb5 803f
000003a0: 6403 1040 a4b6 5e3f ead6 3dbe 10df d43e
000003b0: 0266 26bf 2be6 5a40 69e4 16be 0971 be3e
000003c0: e4ea 93bf a801 0cc0 2514 45be e098 ce3f
000003d0: c259 513f acd7 cd3e a99c f7bd 92f3 d43f
000003e0: 6e1a 7cbf f517 02c0 5001 34bf 540e b83d
000003f0: 34af 443f d741 153f 2efc 2abf 7644 fb3d
-0.43195695 0.82497215 -0.5033979 0.27547133 -0.36489466 0.57271487 -0.53332126 0.27058563
-0.8047949 0.07612598 0.07562972 -1.6161852 -0.035035048 1.1785828 0.07470884 -1.6872925
-1.9109181 0.36880308 -0.87801725 1.0724221 0.35709813 1.4687419 -0.908252 1.048937
0.24184905 0.5646276 0.33275232 -0.42352262 -0.18069014 -2.7062361 0.31196812 -0.46261314
-0.04262811 0.4770892 0.39054266 -0.89211124 -0.114569336 -1.496611 0.40316296 -0.8492128
-0.4668473 -0.031942952 0.75313604 -2.3356042 0.023578098 0.06730887 0.7317333 -2.3503397
2.5526438 -1.2817982 -0.011458658 1.5421267 0.30833265 -0.4488327 -0.061802756 1.5682454
1.96762 -1.5451547 0.06769705 -0.4727163 0.18587342 -0.18742415 0.06985172 -0.5231719
1.2135446 -0.8972592 -0.1941699 1.9895179 0.049140323 0.046257026 -0.20391142 2.0607712
-1.43078 -1.6242812 0.054412443 -0.24475873 -0.16314366 1.1185855 0.07849975 -0.17713407
-1.0039825 -1.8177863 0.22150838 -0.19289656 0.3825963 1.9042672 0.25272045 -0.18886174
-1.1782408 -2.0431576 -0.3208667 -1.1408103 0.75967896 1.9815855 -0.3249481 -1.14752
-0.82917196 -1.5463009 0.04173667 0.52740484 1.6630075 0.3903493 -0.0203927 0.54971147
-0.018416902 -0.82880807 -0.1414336 -0.215944 0.112417266 1.3928239 -0.07776583 -0.23034927
0.29039153 -0.20925066 -0.0017321032 0.22972187 -1.8472179 2.8125477 -0.07136984 0.2785177
1.0304153 3.5799491 -0.1005428 0.49022886 1.0821384 -1.2806962 -0.132482 0.5201412
1.2014642 3.1941965 -0.19747318 -0.95464927 0.7080269 0.29721367 -0.20649117 -0.91858155
1.1225708 2.104281 -0.43626863 0.9389027 -0.100728445 1.2855062 -0.4025882 0.9757873
0.61029917 3.0054216 -0.48581624 0.942821 0.04033278 0.019927628 -0.4900437 0.97026813
-2.731879 1.8754307 -0.16979812 -1.082816 0.12801993 0.99263793 -0.10286954 -1.065932
-2.258421 0.053194728 -0.03604031 0.8219635 -0.05823048 1.6477674 -0.096371174 0.82700336
0.31501678 0.38832992 0.09837358 2.5377667 1.6380805 0.7555062 0.04710932 2.480082
-0.036057774 0.4898325 0.05572662 0.65183556 0.9521573 0.5036852 0.09294322 0.67824763
-0.6041582 0.33591282 0.18774585 -0.14031662 0.16713049 0.50358164 0.15035388 -0.08825084
1.7036049 0.8269831 -0.086804226 -0.45352444 0.3871474 -2.4967263 -0.05347631 -0.45713878
1.36932 1.1894565 0.08596209 -0.10582316 -0.37882498 -1.28248 0.047489714 -0.10583621
2.0200887 1.4465483 0.49752218 0.8949724 -1.4483969 0.37269804 0.465154 0.8726499
-0.034258988 1.0101504 -0.2712548 0.40890846 0.27463183 0.30230263 -0.28455344 0.43523115
1.594227 1.1007451 -0.09844333 0.9983458 -0.07662926 2.1855247 -0.06767249 1.0055403
2.250207 0.8699744 -0.18539014 0.41576433 -0.649994 3.4202983 -0.14735569 0.37195614
-1.1556058 -2.187601 -0.19245966 1.6140404 0.81777585 0.40203607 -0.120904274 1.6636832
-0.9847783 -2.0327122 -0.703145 0.08987108 0.7682984 0.5830359 -0.66791046 0.12268917

fc1.bias f4 [400]
00000000: d1d4 7abd aaf2 4fbe 117a b3bd f70c 0a3e
00000010: 25e8 60bd e8be 25bc 1e86 f6bd 9331 d33d
00000020: 9992 0cbe 5f52 03bd 9121 193e 35fc 06bd
00000030: 7f80 d93d 017e b83c 5339 2c3e fbbd 82bd
00000040: 1036 33be 914f 9f3d 3dad 80bd 600d 193e
00000050: 29e3 eabd ec4e 2e3e c724 febd 6907 03be
00000060: e899 383e 2eaa 14be 9e8a 7b3d 96bd 663d
00000070: 4f37 993d 5bd2 12be 495e f73d 90b1 b7bc
00000080: 1df5 0abe 31ab 30be 2b58 2cbe 1572 4ebd
00000090: 351b 41be 6ad6 01be 290b 4fbe f60a 72bc
000000a0: 8160 2cbd c696 cb3d b67a 33bd fa40 4abe
000000b0: ff48 49be d29e 10bd 7c2e 363e dd7c b93d
000000c0: f76f f4bc 7e12 f93c 80f7 083e 8adf 553c
000000d0: bae6 4a3e 0bbc 333e be47 9dbc 6629 e73d
000000e0: fd18 43be 8bd6 a53d 6157 87bd 1254 a7bd
000000f0: ef5a 423e 4d6f d6bc 5256 c1bc 5602 44bd
00000100: 7673 0abd e671 5ebd 1e5c 513c 493e 873d
00000110: ac27 98bd bcea 1bbd 55af 68bd 4226 1c3e
00000120: d85a 76bd 258e 41be 3a1f 84bb a12f b5ba
00000130: f55f ddbd d16d a13d 1c09 e4bd f11d 13bb
00000140: e81e 703d 98b0 013d 46f5 05bc be60 3abe
00000150: cf57 e0bd 9d0b b63c 6bcb 3d3e 4929 0cbe
00000160: 81f9 e6bd 9f1f 3abc 570a 69bd a26b cbbd
00000170: 998f 68bd 172e 25be ea5d 7bbd 1411 23be
00000180: 0a23 2f3e b755 30be e899 0c3e 4536 3b3e
00000190: 802e 8bbd e255 023e ae5f 393e c9eb 2e3d
000001a0: 6855 813d 92af 2dbe a651 91bd 584b d43d
000001b0: 7d33 63bd 9f96 1abe 6ca9 323d 4840 a0bc
000001c0: 9949 8abd 1aae 8b3d ab3f 99bd e41a 143e
000001d0: e8e8 0d3e 0ebb d13d 8cf5 e5bd 4128 5abd
000001e0: 6827 d53d 926b ffbd ddbb b7bc c59d ae3a
000001f0: a01f 423e 8f25 9c3d 91f3 1bbe 783f 563c
00000200: c5bf 15be 61c9 22be c757 3d3e d5bd 423e
00000210: 1763 923d 0467 da3d 0956 63bd 13f7 deba
00000220: 86f2 14be d3b2 b13d 0964 d93c 372f 8f3c
00000230: bdf4 fb3d 80d6 d23d e7a1 eebd 03f0 033e
00000240: 2696 343c d301 a6bd 8cc1 d03d 93b3 e8bd
00000250: b1aa c03d b261 8abd 0258 763b 6ea1 f23d
00000260: 727f b0bd d89b 2abe 1f80 703a 4e04 4abb
00000270: 5ea7 453e 9672 213e e51f c8bd e47b 653d
00000280: f8bc 563d bdee 43be 2b34 413e 1886 9fbc
00000290: 038c 6a3b 99e2 39be 86bf 30be 002d 0f3d
000002a0: 8f6e 473e 9cb0 05be 4bea 29be fa0f 093d
000002b0: 6cc5 52bd 139c ee3d 8787 b13b 0e38 eb3d
000002c0: e215 233e d3c4 893d 2e69 fdbb 9413 18be
000002d0: d549 1abe 0ff0 2fbe 1a31 ffbd f1b7 323e
000002e0: ea11 313e 8d38 c03d 00cf 6abd 716d ad3d
000002f0: e8c7 313e 37dd e0bc 2a79 df3d fd9b dd3c
00000300: e636 433e 0ee6 5f3b a45f 20be 9c31 0fbe
00000310: 5508 ac3d ea18 c0bd aaf3 fd3d e40a b93d
00000320: 74da 03be bf60 e83b be36 2d3e 458c 4dbe
00000330: 47e7 e83d 6fc0 2dbe ac43 2c3e 12f1 d0bd
00000340: 22e4 3ebe cdb7 a03d ccd4 273e 91f4 a5bd
00000350: aaef cdbd d3b7 c6bc 6456 0d3e 9b8d d0bc
00000360: 07e8 083e 1cf7 24be 12b7 0cbe b9f0 303e
00000370: 6d78 bb3c 10ca c9bd 70f8 bc3d 14a4 e93c
00000380: 4017 a13b ef40 91bd c916 033e cb80 133e
00000390: 092d b9bc bd94 07be 0586 9fbd def4 d13d
000003a0: a20f 0e3e c288 e0bd 91c8 4e3a 9567 11be
000003b0: 59f8 c0bd e1df 2d3d d756 813d e949 ba3c
000003c0: 0683 bf3d d986 323d be63 f23c a484 45be
000003d0: 9e36 b43d 7834 113e 38ae e3bd 2699 06bd
000003e0: 53df 223c 99ca 3f3e bb75 fa3d b899 2cbe
000003f0: 5a97 ea3d 3e74 b23d 3f3f 23be f16e 9f3d
-0.061238114 -0.20307413 -0.08763517 0.13481508 -0.05490889 -0.010116316 -0.120372996 0.1031219
-0.13727798 -0.032060977 0.14954211 -0.032955367 0.10620212 0.02252102 0.16818742 -0.06383892
-0.17501092 0.07778848 -0.062830426 0.14946508 -0.114691086 0.17022294 -0.124093585 -0.12795796
0.1802746 -0.14518043 0.061411493 0.056333147 0.074812524 -0.14338057 0.1207853 -0.022423536
-0.13570066 -0.17252804 -0.16830508 -0.050401766 -0.18858035 -0.12679449 -0.20219101 -0.014773121
-0.04208422 0.09940867 -0.0438182 -0.19751349 -0.19656752 -0.035307713 0.1779117 0.09057019
-0.029838545 0.030404326 0.13375664 0.013053784 0.19814578 0.17552201 -0.019199248 0.11287193
-0.19052501 0.080975614 -0.06608463 -0.08170332 0.18980001 -0.02617612 -0.023600731 -0.04785379
-0.03380152 -0.05430784 0.01277831 0.06603677 -0.07429442 -0.038065657 -0.056807835 0.15248969
-0.06014523 -0.1890188 -0.004032043 -0.0013823399 -0.10809318 0.07882274 -0.1113455 -0.0022448266
0.058623224 0.031662554 -0.0081761535 -0.18200967 -0.10954248 0.022222335 0.18534629 -0.13687624
-0.11278058 -0.011360078 -0.056894626 -0.09932639 -0.05677757 -0.16130863 -0.06136886 -0.15924484
0.1710321 -0.17220198 0.13730586 0.18282421 -0.067959785 0.12728074 0.18102905 0.04270533
0.06315118 -0.16961506 -0.07095651 0.10365933 -0.055469025 -0.1509652 0.043618605 -0.019561902
-0.06752319 0.068203166 -0.07482847 0.14463383 0.13858378 0.10240756 -0.11228475 -0.053261045
0.10407907 -0.12471689 -0.022428447 0.0013322165 0.18957376 0.07624351 -0.15229632 0.013076656
-0.14623936 -0.15897132 0.18490516 0.19017728 0.07147806 0.1066418 -0.05550197 -0.001701089
-0.1454564 0.08676686 0.026536958 0.017478568 0.123025395 0.10294819 -0.11651974 0.12884526
0.011022126 -0.08105817 0.10193166 -0.11362376 0.09407557 -0.06756915 0.0037589078 0.118471965
-0.08618058 -0.16661012 0.0009174365 -0.003082532 0.19302127 0.15766367 -0.097717084 0.056026354
0.05242631 -0.1913404 0.18867557 -0.01947312 0.003578902 -0.18152846 -0.1726056 0.034955025
0.19475769 -0.13055652 -0.16593282 0.033462502 -0.051457807 0.116508625 0.0054177674 0.11485301
0.15926316 0.06726994 -0.0077334857 -0.14851218 -0.15067227 -0.17181419 -0.12460537 0.1745298
0.1729199 0.09385786 -0.057326317 0.0846814 0.17361414 -0.027449233 0.10911782 0.02705192
0.19063911 0.0034164223 -0.15661484 -0.13983768 0.08400027 -0.09379752 0.12399991 0.0903528
-0.12876302 0.007091611 0.16915414 -0.2007304 0.11372238 -0.16967939 0.1682269 -0.102022305
-0.18641713 0.07847557 0.1638977 -0.08103288 -0.10055478 -0.024257576 0.13802487 -0.025458148
0.13369761 -0.1610989 -0.13741711 0.17279328 0.022884572 -0.098529935 0.09227073 0.028520621
0.0049161017 -0.07092463 0.1280166 0.144046 -0.022604482 -0.13240333 -0.07789234 0.10251783
0.13873151 -0.109635845 0.0007888163 -0.1419967 -0.094223686 0.042449836 0.063153915 0.022740321
0.093511626 0.043585632 0.029588576 -0.1928888 0.0879948 0.14180171 -0.11117214 -0.032860897
0.00994094 0.18729629 0.122294866 -0.16855514 0.11454649 0.08713578 -0.15942095 0.07784832

bn1.weight f4 [400]
00000000: d5a8 223f f078 253f 517f 4f3f 4054 863f
00000010: 4582 853f d049 0e3f 33ab 3c3f f92a 733f
00000020: da76 713f ba92 913f 063b 4a3f 5dec 5d3f
00000030: 37d0 6a3f b94b a33f 97f7 313f 01ae 553f
00000040: f0b7 813f 9c83 353f 5b03 663f ab67 733f
00000050: ae42 843f a05c a33f 583c 813f ac70 883f
00000060: 7c88 a73f 9592 623f 7393 463f 85d3 133f
00000070: 6495 783f 9881 0640 4efe 163f 4026 183f
00000080: 484e 793f 103f 513f 6efb 9d3f bf87 563f
00000090: 5bde 9f3f 7d20 6b3f cf96 8e3f 0500 863f
000000a0: 68be be3f 62b7 3a3f c57a 6a3f 697b b83f
000000b0: 577e 933f fcda 493f ff03 923f 2ab5 793f
000000c0: 4f89 193f a8c3 6e3f 3fc8 583f 37f7 7c3f
000000d0: 8e2b 123f e302 2d3f cb3e 223f 748b 733f
000000e0: a8f0 5a3f af38 2b3f 6d91 3c3f ed22 403f
000000f0: 39f3 363f 0dbc 813f 0dcc 113f b6b9 153f
00000100: d03f 1a3f 110f 6f3f d8b8 203f b360 6e3f
00000110: 6b46 533c 45be 8b3f 2f4c 7d3f 2f64 ff39
00000120: 86f9 603f 1b58 fd3e 1726 6c3f 40f3 943f
00000130: 8465 0a3f 2879 923f 29b5 e33f 5b57 fc3e
00000140: ba09 243f 1602 593f a480 733f a58b a73f
00000150: 35d7 b93a 4432 0a3f 9f65 dc3f 82c2 703f
00000160: 1802 773f 3947 703f e734 4c3f 480f 803f
00000170: 7f29 963f 2304 843f fae4 603f 121c c53f
00000180: 1128 c13f 7847 a23f 8d7b 9b3f 5667 d73e
00000190: 396f 363f 43ad 333f 8a3f 813f 3bf9 443f
000001a0: be65 0e3f 2b43 643f e151 913f 12c9 483f
000001b0: 5615 763f 1228 9b3f 53a2 303f ae8b a53f
000001c0: a1ce 403f cfae 9d3f f54f b23c 9834 4a3f
000001d0: 0ada 8d3f dc1b 273f 616a 9a3f 4c74 863f
000001e0: b2b3 833f 62e3 473f 9378 783f f0ad 493f
000001f0: be55 ad3f 47ad 6d3f 1e1b a23f 089a 563f
00000200: 42b2 4a3f 405a 3d3f 3634 5f3f fc73 4e3f
00000210: 14c5 8d3f 076a c23f 7aec 453f c5aa 813f
00000220: 9fb4 453f 7017 1c3f 6a2b 293f beb9 793f
00000230: 9edb 7c3f 9921 523f 2fba 9c3f 9352 793f
00000240: e94c 603f 9f9a 8f3f a398 aeba fb51 da3f
00000250: e1b6 6d3f c73c 553f 3432 463f 31d9 403f
00000260: c4f4 733f c8ab 943f ffb4 8e3f 0e06 ad3f
00000270: 915b f0ba 1c1b 3d3f 2e58 673f ab65 e33f
00000280: e7bc 473b 33c2 7e3f 5616 693f 5936 e23a
00000290: 67c5 f0bb afd4 513f 6aa2 963f 1905 a33f
000002a0: 81c6 803f c16d 4c3f 0ab6 133f f8b2 293f
000002b0: bc45 3d3f 59c1 883f 0979 143f 96b3 883f
000002c0: a907 8e3f 25e5 763f 2b87 783f 4a43 7d3f
000002d0: f65a e63e a1e9 4a3f b5df 703f 52c7 6b3f
000002e0: 50e7 203f 6450 793f 4a99 123f 07a4 3d3f
000002f0: f8a3 6d3f d9ce 7c3f 6110 9f3f a037 45bf
00000300: eaa8 8f3f 81db 3d3f a920 5f3f c9e4 733f
00000310: a092 753f 9582 433f 5897 8a3f 2fac 373f
00000320: 9440 8a3f 813d 823f c7cf 213f b9b6 803f
00000330: b37f 923f b697 bc3f 2bc2 8e3f 52f3 423f
00000340: b9bd 833f beaf 4e3f c064 733f d531 513f
00000350: b20f 583f fd45 6b3f 3ee8 5e3f de32 743f
00000360: d90f 453f 9135 4f3f 0287 a63f 8e64 4c3f
00000370: f312 533f 57aa 353f d7d2 383f e4e9 673f
00000380: 71e2 823c 8ca2 573f e9b6 623f f0d0 1d3f
00000390: 8f35 4e3f 75d2 8a3f 32b1 4f3f 6f5a 9c3f
000003a0: bf4e 8d3f dd50 443f e8d1 9c3f 11fd a03f
000003b0: d378 3d3f 7a1d 8b3f 1ed3 3e3f c0a4 0f3f
000003c0: b419 003f f99c 273f ed3a 1c3f a5bc 443f
000003d0: e568 8cbc cd67 a23f c9ff 8a3f 4d2f a73f
000003e0: d579 113f 5684 843f f603 253f f608 793f
000003f0: e6ed 133f 647b a03f b7fd a43f b300 3fbf
0.6353887 0.6463766 0.81053644 1.0494461 1.043038 0.5558138 0.7369873 0.94987446
0.9432198 1.1372902 0.7899631 0.86688787 0.9172396 1.2757484 0.6951842 0.83468634
1.0134258 0.70903945 0.8984887 0.9508006 1.0332849 1.2762642 1.009654 1.0659385
1.3088527 0.88504916 0.7756874 0.5774463 0.9710295 2.1016598 0.5898179 0.59433365
0.9738507 0.8173685 1.2342355 0.8380088 1.2489733 0.9184645 1.1139773 1.0468756
1.4901857 0.7293607 0.9159358 1.4412662 1.1522931 0.7884977 1.140747 0.9754206
0.5997514 0.932673 0.8468055 0.9881472 0.5709771 0.6758253 0.63377064 0.95134664
0.8552346 0.6688337 0.736594 0.7505329 0.7146488 1.0135514 0.5695198 0.584865
0.6025362 0.93382365 0.6278205 0.931163 0.012895207 1.0917441 0.9894437 0.00048712033
0.8788074 0.49481282 0.9224562 1.1636734 0.5406115 1.1443224 1.7789661 0.49285397
0.6407734 0.8476881 0.95118165 1.3089491 0.0014178517 0.5398295 1.7218512 0.94046795
0.9648757 0.9385868 0.7976822 1.0004663 1.1731414 1.0313762 0.8784939 1.5399191
1.5090352 1.267806 1.214708 0.42071027 0.7126346 0.7018625 1.0097516 0.76942796
0.55623996 0.8916499 1.1353112 0.7843181 0.96126306 1.2121603 0.6899769 1.2933252
0.7531529 1.2318972 0.021766642 0.789865 1.1082165 0.65276885 1.2063714 1.0504241
1.0289214 0.78081334 0.9705898 0.7878103 1.3541791 0.92842525 1.2664526 0.83828783
0.7917825 0.73965836 0.8718904 0.8064573 1.1075768 1.5188607 0.7731396 1.013024
0.7722873 0.6097326 0.6608187 0.97549045 0.9877261 0.82082516 1.2244319 0.97391623
0.87617356 1.1219062 -0.0013320636 1.7056268 0.92857176 0.83295864 0.77420354 0.7533141
0.9529536 1.1614923 1.1148986 1.3517473 -0.0018337836 0.7386949 0.90368927 1.7765402
0.0030477585 0.99515074 0.91049707 0.0017258629 -0.007347751 0.81965154 1.1768315 1.2735931
1.0060579 0.7985497 0.57699645 0.6628871 0.7393453 1.0684005 0.57997185 1.0679805
1.1096088 0.96443397 0.9708125 0.989308 0.44991273 0.7926274 0.9409135 0.92101014
0.62852955 0.9738829 0.5726515 0.7407841 0.9282832 0.98753124 1.2426873 -0.77038
1.1223423 0.7416306 0.8715921 0.95270973 0.95926857 0.7637113 1.0827436 0.71747106
1.0800958 1.017502 0.6320767 1.0055763 1.1445221 1.4733799 1.1153005 0.7615253
1.0292274 0.8073691 0.9507561 0.8171666 0.8439895 0.9190367 0.87073123 0.9539012
0.76977307 0.8094111 1.3009951 0.79840934 0.8245079 0.7096304 0.72196716 0.90591264
0.015977116 0.842324 0.8856035 0.6164694 0.80550474 1.0845476 0.81129754 1.2215098
1.1039656 0.7668589 1.2251558 1.257723 0.7401249 1.086837 0.7454089 0.56110764
0.5003922 0.65473896 0.61027414 0.7685035 -0.017139861 1.2687927 1.085931 1.306131
0.56826526 1.0352886 0.6445917 0.972793 0.5778488 1.2537656 1.2889928 -0.7461044

bn1.bias f4 [400]
00000000: af9c c3be 166c d5be 7af1 19bf 6ad0 31bf
00000010: 3c24 c3bd 622c 40bf 8003 43bf e138 41bf
00000020: 0e09 07bf a064 8abf 2b0a 17bf 2bbd 1dbf
00000030: 90b8 2ebf 25b9 4ebf 7ea6 bcbe 9727 94bf
00000040: 5dd4 67bf a32a bcbe 5c7b 17bf 888e e9be
00000050: 6785 89bf d308 45be beb9 64bf aa0d 9d3e
00000060: 2619 e1be 7454 39bf 1459 2fbf 2ff6 90bd
00000070: 224b 8abf b5dc bfbe cae3 babe c354 a9be
00000080: ccf0 82bf 4958 5fbf d8cb d8be 6daa 81bf
00000090: 37d4 88bf d860 8bbf 5772 6bbe ee34 80bf
000000a0: 641a b2bf cb8f 80bf 5bd6 60bf 43b6 cebe
000000b0: 0a3c c3be bff5 30bf 5031 97bf 95e5 82bf
000000c0: 7b92 54bf 7cfc 24bf ba55 3ebf bc38 16bf
000000d0: 1af7 7dbf 0cc9 21be ff99 bdbe 84fa 83bf
000000e0: cb56 a7bf f963 52bf 5af7 67bf 9127 34bf
000000f0: f2b3 efbe a6b7 4abf 8842 50be 767e 33bf
00000100: d09b 20bf a22e 4ebf f382 113e 857a 6bbf
00000110: 20ad 90bd ee2b a9be 65f4 46bf a85a 14be
00000120: 560b d4be cdaa 90be 406f 9fbf bec2 90bf
00000130: eb69 91be aa62 47bf a3e2 70bf 44a8 5b3d
00000140: 98b8 03bf 3fbb 82bf 310f 87be d159 81bf
00000150: eb4d 1abd 5a01 a9be 0422 d6bd a2f1 adbe
00000160: 4352 acbe 2012 1abf 4c4d 59bf ed45 22bf
00000170: 8e8a 93bf 89ac 9cbe 36aa 63bf d9ca 28bf
00000180: 6f24 a2bf 9216 93bf a374 25bf 360b 09be
00000190: 907f 52be b29d 55bf 6719 28bf cb35 28bf
000001a0: 7459 9dbe 768e 89bf 80af 44bf ec8b 07bf
000001b0: b301 59bf b381 73bf fc33 c8be ebda 73bf
000001c0: 1b3d 82be 15d1 aebe d3df e9bd e911 29bf
000001d0: a964 abbf 381c 30bf 02b5 64bf f986 e9be
000001e0: 563d 15bf 71da a63e 5908 6bbf 3906 21bf
000001f0: 23b7 7ebf 6cc5 b0bf a2c7 ddbf 191f 89bf
00000200: 4712 76bf 950a 4cbf 9345 e6be fa5f 01bf
00000210: 9525 a5bf af16 54bf 4c9b 8fbe 05d4 97bf
00000220: 04e9 2ebf d5d8 e6be 0536 34bf 03e3 7abe
00000230: a65a 79bf 97ce 38bf 9e7d 87bf 25c6 f23d
00000240: de2d 59bf 8db1 9cbf 2a54 cfbd bd86 9ebe
00000250: 84f2 5dbf 515a 9ebe 42af 24bf 3b10 60be
00000260: 128a 84bf 8b0b 3bbf 6e4d 89bf 154d 6ebf
00000270: 3d04 50bc 6818 08bf eac5 79bf b0bf 0fbf
00000280: 4231 8abc 0cbf ebbe 2f49 4ebf 8c90 a0bd
00000290: 162a 9ebd 9f40 6ebf f16f 5bbf f4eb 89bf
000002a0: 9b8d 14bf 9113 6abf 2682 a1be e140 b83e
000002b0: 483c 983d 4af8 59bf 826a b8be 76c9 71bf
000002c0: f816 08bf 414e 83bd dce8 9fbf 9cae ddbe
000002d0: 45c4 94bd 412a 71bf 73f4 2f3b 2a68 81bf
000002e0: 0bad 20bf 185e e3be 4b7a dfbe f178 51bf
000002f0: 8a1b ccbe 74f9 09bf 7041 70bd b366 603e
00000300: d808 2ebf 4fc5 2ebf bd64 09bf b0f6 44bf
00000310: 43e1 6ebf 0943 2fbf aa03 58bc 6900 96be
00000320: a353 7abf c3cb adbf 8216 15bf 2197 7bbf
00000330: 9deb c8bd e3d3 5cbf deae 56bf 8d21 00bf
00000340: 6307 1bbf d356 1ebf db42 dcbe 015f 4f3f
00000350: 857b 3abf e91c 7fbf c03d 20bf 2ea7 4abf
00000360: d688 08bf 4840 2ebf 4315 67bf 1326 c2be
00000370: ed3b 07bf b5fe e7be 1465 d0be 5368 66bf
00000380: e69c c2bd 2ffd 22bf 3922 93bf b68c 1ebf
00000390: b4e8 70bf e6ec 41bf 473e 69bf ffe3 6fbf
000003a0: 65c2 1dbf 6af3 46bf 0fb2 50bf e124 2abf
000003b0: 56f6 1dbf b921 75bf 0a98 8cbf 4c76 b0be
000003c0: 1ab5 f2be ae71 0fbf 575a cebe 32bc 28bf
000003d0: bf00 a7bd aab4 4abf 0a18 afbf e9c8 e0bf
000003e0: 7c9f bfbe d2df 2dbf 94d1 19be 8b06 31bf
000003f0: 1881 afbe b206 70bf 32a8 a9be cadf 21bf
-0.38205478 -0.41684026 -0.6013409 -0.6945864 -0.095283955 -0.7506772 -0.76177216 -0.75477415
-0.5274819 -1.0811958 -0.5899989 -0.6161677 -0.6825037 -0.8075126 -0.36845773 -1.1574582
-0.90558416 -0.3675128 -0.59172606 -0.45616555 -1.0743836 -0.19241647 -0.8934592 0.30674487
-0.439645 -0.7239449 -0.684953 -0.07078206 -1.0804179 -0.37473074 -0.36501914 -0.3307248
-1.0229735 -0.8724409 -0.4234302 -1.0130135 -1.0689763 -1.0888929 -0.22992836 -1.0016153
-1.3914304 -1.0043882 -0.8782708 -0.4037343 -0.38131744 -0.6912498 -1.1811924 -1.0226313
-0.8303601 -0.6444776 -0.7434956 -0.5868032 -0.9920517 -0.1579935 -0.37031552 -1.0310826
-1.3073362 -0.82183796 -0.90611804 -0.70372874 -0.46816975 -0.79186475 -0.2033788 -0.7011484
-0.6273775 -0.80539906 0.1421011 -0.91983825 -0.07064271 -0.33041328 -0.77716666 -0.14487708
-0.414149 -0.2825531 -1.2455826 -1.1309431 -0.28401121 -0.77884924 -0.9409582 0.053627267
-0.5145354 -1.0213393 -0.26378778 -1.0105535 -0.037671965 -0.33008844 -0.10455707 -0.33973414
-0.3365651 -0.60183907 -0.8488357 -0.6338795 -1.1526659 -0.30600384 -0.88931596 -0.6593452
-1.2667369 -1.1491263 -0.646311 -0.13383183 -0.20556474 -0.8344375 -0.6566376 -0.6570708
-0.3073231 -1.0746601 -0.7683029 -0.5294788 -0.8476822 -0.9511978 -0.3910216 -0.9525592
-0.25437245 -0.34143892 -0.11419644 -0.66042954 -1.3390094 -0.6879306 -0.89338696 -0.45610788
-0.58296716 0.32588533 -0.9180961 -0.6290012 -0.99498194 -1.3810248 -1.7326548 -1.0712615
-0.9612164 -0.79703647 -0.44974956 -0.50537074 -1.2902094 -0.8284711 -0.2804817 -1.1861578
-0.68324304 -0.45087305 -0.7039493 -0.2450066 -0.97403944 -0.7219023 -1.058521 0.11854199
-0.8483561 -1.2241684 -0.10123475 -0.30962172 -0.86698174 -0.3092828 -0.6432992 -0.21881191
-1.0354636 -0.7306449 -1.0726755 -0.9308637 -0.012696323 -0.5316224 -0.9756762 -0.56151867
-0.016869191 -0.46044195 -0.8058042 -0.0784007 -0.07722871 -0.93067354 -0.85717684 -1.0775132
-0.5802857 -0.91436106 -0.31544608 0.35987 0.07433373 -0.85144484 -0.3601876 -0.9444803
-0.5316005 -0.0641141 -1.2492938 -0.4329728 -0.07263998 -0.942051 0.0026848584 -1.0109913
-0.6276404 -0.44407725 -0.4364799 -0.81825167 -0.3986476 -0.5389626 -0.058656156 0.21914177
-0.67982244 -0.6826982 -0.5366934 -0.76938915 -0.9331247 -0.6846166 -0.013184467 -0.29297188
-0.9778387 -1.3577808 -0.5823747 -0.9827748 -0.09810565 -0.86260813 -0.83860576 -0.50051194
-0.60558146 -0.61851233 -0.43019757 0.8100434 -0.72844726 -0.9965349 -0.62594223 -0.79161346
-0.53333795 -0.68066835 -0.9026682 -0.37919673 -0.52825814 -0.45311514 -0.40702116 -0.90002936
-0.09502582 -0.6366758 -1.1494819 -0.6193346 -0.94105077 -0.75752103 -0.9111065 -0.9370727
-0.6162475 -0.7771517 -0.81521696 -0.6646252 -0.61704004 -0.9575458 -1.0983899 -0.34465253
-0.47403795 -0.56032836 -0.403033 -0.65912163 -0.08154439 -0.7918192 -1.3679211 -1.7561313
-0.37426364 -0.6791965 -0.15021354 -0.6915061 -0.34278178 -0.93760216 -0.33136135 -0.632321

bn1.running_mean f4 [400]
00000000: 856e 0042 2948 05c1 327e 36c2 8fe4 4742
00000010: d888 a441 0d2f 0cc2 82e8 1842 e403 f340
00000020: a8e6 57c2 99b0 80c1 84af 1242 7bd5 8842
00000030: 2003 04c2 0ef9 2141 5f79 6b42 df05 1d41
00000040: 8c9d 3442 b47a 8e41 b834 bd41 3a57 4b42
00000050: 322c 2442 d3ff 8440 2f1b 0042 5c7c 8d3d
00000060: 368c cc40 06f1 7bc2 2f5a 8542 04bf 8642
00000070: 9b83 e041 c415 9241 8666 a0c1 50fd 4042
00000080: ce7c 4e42 f9e3 5041 7ca0 24c2 fbce 4bc0
00000090: b700 bc41 534f 24c2 1565 9fc1 a061 35c1
000000a0: 0d4a 2341 f3eb ed41 82f6 3142 99cd d941
000000b0: 6f8f 90c0 a45b cfc1 c859 2c41 d648 0bc1
000000c0: 3304 1cc2 8d78 e941 d518 c441 2fb8 7d41
000000d0: cbb2 24c2 fcde 4fc0 c329 4b42 91c0 d241
000000e0: 663c a0c1 c505 3ec0 b34c 1440 ad93 5ac1
000000f0: 06c5 46c1 a195 0141 85fd d741 eee4 6a41
00000100: ec90 5bc2 c1df 2942 731c 22c2 31fe 71c1
00000110: 5246 02bf 0414 3c3f 2349 1542 1554 4d3f
00000120: 9174 4242 e909 bec0 d828 2142 e44f 7442
00000130: c323 4bc2 aa81 1642 7864 6141 d69f 1942
00000140: 90a5 9f41 c63f c0be b03d 803f df8f cf3f
00000150: 46d6 30bf 4939 a73f 4a49 f53f f953 8341
00000160: 405e c041 f40a 2842 5b3f bbc0 813a f441
00000170: 00cc b041 f13f 7640 edc2 c1c1 ca99 163f
00000180: a717 af41 4e19 cebf a116 1642 ace0 b741
00000190: 40fe 7d42 9856 fbc1 e4d6 1442 cd5b a9c1
000001a0: f81f 93c1 f8bd b1c1 df4b a641 c384 2ec2
000001b0: 6291 10c2 ff20 9441 3644 e540 95b1 b441
000001c0: 49d0 58c1 7360 5741 4b8c 1ebf 9579 c4c1
000001d0: b595 3541 2fed e0c1 3642 2e42 0ceb 6442
000001e0: 9280 82c1 b717 4042 5567 d8c1 b064 f441
000001f0: e00d 9c41 6b1f d1c1 00c1 3dc2 51b7 24c2
00000200: 6fe8 52c2 38de 07c2 4a68 c93f 8920 0b42
00000210: 5615 40c1 33c5 2142 cca3 2bc1 9ca5 0dc2
00000220: 6919 0542 3ccc 35c2 7bfd bd41 4670 9740
00000230: 8af4 0e42 f48b 74c0 1d5e 7841 708d 1a42
00000240: 66ad edc1 3f4a 5340 e0f7 c83d c1e5 1642
00000250: 253d 6141 f6c0 2d41 105a 3840 aecb 3142
00000260: aaf5 25c1 732a da40 7146 3242 148a b7c1
00000270: 46ce dcbe e8bb 3342 8a69 cd40 8e23 4f42
00000280: 20f7 053f 6569 fc41 033f adbf 19c9 fbbe
00000290: 96c7 d63e cedb 0ec1 9592 4b42 ceff e541
000002a0: 9687 5a41 3fa7 5bc1 9bd5 a141 da77 5a41
000002b0: 152a 5641 80c8 7cbf 3667 cbc0 23d0 fb41
000002c0: 82f9 8141 c823 9b41 1134 c941 3012 d7be
000002d0: 23aa d4c1 6cd4 45c2 e7df c9c0 e3c3 1241
000002e0: f9df c0c1 accc df3e 2827 f7c0 71b5 6441
000002f0: 1efd b140 cf49 77c0 1910 8441 1661 9641
00000300: 4688 3a42 e15f 5241 f115 f441 244e 0942
00000310: 1e8a 7ac2 1d8f c8c1 4a82 1b42 58c7 b540
00000320: 7de3 39c0 373e 20c1 725c 5841 fe27 c8be
00000330: 08f9 9941 e825 2542 ae53 cbc1 1d77 1e42
00000340: 6e6d 1242 762f 24c2 1e87 4d42 4b1a 70c2
00000350: d6b7 96c1 a692 8dc1 e59e 3742 62f8 9dc1
00000360: c8ec 86c1 b21d cbc1 d389 2542 1a06 d040
00000370: 7592 1f41 52c0 1042 f532 5f42 4d4e bb41
00000380: 9a74 a93e 31d4 6441 5429 41c2 164c 0742
00000390: 9500 00c0 4827 e841 d815 b541 5bfa f341
000003a0: 511d 01c1 dfd3 5542 57df 8341 a779 dd41
000003b0: 6e5e 5841 de4b aec1 7bf2 88c0 a289 4742
000003c0: 1a82 abc1 5582 1c41 7a07 e0c1 add5 0dc2
000003d0: f94a 8c40 4713 9041 4f1d fa41 34ab a0c0
000003e0: 8de6 0bc2 916f 0442 63f6 03c2 6dbb ca41
000003f0: 9091 df40 9f36 a6c1 4924 2f42 125c afc1
32.10793 -8.330117 -45.623238 49.9732 20.566818 -35.045948 38.22706 7.594225
-53.97525 -16.08623 36.671402 68.416954 -33.00305 10.123304 58.868526 9.813933
45.153854 17.809914 23.650742 50.835182 41.04316 4.1562285 32.026546 0.06908485
6.3921156 -62.985374 66.67614 67.37308 28.06426 18.260628 -20.05006 48.247375
51.62188 13.055657 -41.156723 -3.184508 23.500349 -41.077465 -19.924356 -11.336334
10.205579 29.74021 44.49073 27.22539 -4.517509 -25.919746 10.771919 -8.705282
-39.0041 29.183863 24.512125 15.857467 -41.174603 -3.247985 50.790783 26.344027
-20.029491 -2.9691021 2.3171813 -13.661054 -12.423101 8.0990305 26.998789 14.680891
-54.891525 42.46851 -40.527782 -15.124558 -0.5088855 0.7346804 37.321423 0.80206424
48.613834 -5.9387097 40.289886 61.07802 -50.784924 37.626625 14.0870285 38.40609
19.955841 -0.37548655 1.0018826 1.6215781 -0.69076955 1.3064357 1.9162991 16.416002
24.04602 42.010696 -5.851484 30.528566 22.09961 3.8476527 -24.220179 0.58828413
21.886549 -1.6101472 37.5221 22.984703 63.49829 -31.417282 37.209854 -21.169825
-18.39061 -22.217758 20.787046 -43.62965 -36.141975 18.516111 7.1645765 22.58671
-13.550851 13.461047 -0.6193282 -24.559366 11.34905 -28.115812 43.56466 57.229538
-16.312778 48.02316 -27.050455 30.549164 19.506775 -26.14034 -47.438477 -41.17902
-52.726986 -33.96701 1.5734951 34.781773 -12.005209 40.442577 -10.727489 -35.411728
33.274815 -45.449448 23.74877 4.7324553 35.738808 -3.821042 15.522977 38.638123
-29.709667 3.3014066 0.098129034 37.72437 14.077428 10.85961 2.880497 44.448906
-10.372477 6.817682 44.56879 -22.942421 -0.43126124 44.933502 6.419133 51.78472
0.5233021 31.551462 -1.3534855 -0.49176863 0.41949147 -8.928663 50.893147 28.749905
13.658102 -13.728332 20.2293 13.654261 13.385274 -0.9874344 -6.356349 31.47663
16.24683 19.392471 25.150423 -0.42006063 -26.583075 -49.457443 -6.308582 9.172824
-24.109362 0.4371084 -7.72353 14.294297 5.562148 -3.86388 16.50786 18.797405
46.63308 13.148408 30.510714 34.32631 -62.63488 -25.06988 38.877235 5.680584
-2.9045098 -10.015189 13.52257 -0.39093012 19.246597 41.287018 -25.41586 39.61632
36.606865 -41.04635 51.38195 -60.025677 -18.839764 -17.696606 45.90517 -19.74628
-16.865616 -25.3895 41.384594 6.500745 9.973256 36.187813 55.799763 23.413233
0.33096772 14.301805 -48.29036 33.824303 -2.0000355 29.01918 22.635666 30.497244
-8.069657 53.456905 16.484053 27.6844 13.523054 -21.787045 -4.2795997 49.884407
-21.438526 9.781819 -28.00365 -35.458668 4.384152 18.009413 31.26431 -5.020899
-34.975147 33.10895 -32.990612 25.341516 6.986519 -20.77667 43.785435 -21.919956

bn1.running_var f4 [400]
00000000: 0345 a644 819b bb44 645f 2344 fa06 c543
00000010: 4c1e da42 67ff d843 738c 2244 8ace 2a44
00000020: d83e f643 03f4 b543 e402 5f44 b9e2 7344
00000030: 5186 a643 caa7 3243 5cc4 8444 d0e7 6443
00000040: e344 2744 6981 1543 a66e 6144 1589 bd43
00000050: c798 6443 1e31 a041 3ec9 e543 18f2 8443
00000060: 0b35 1342 de12 d743 1a06 8944 7acc 1244
00000070: d1fd 2e44 7510 6043 fc1e 4a44 a824 8144
00000080: de86 5744 4b76 e043 41a8 f143 88f1 c343
00000090: c35a 1344 b4ca 4a44 b4ba 1544 ee61 5944
000000a0: fe46 c442 389e 1e44 cf8a c543 4ab4 d243
000000b0: c014 2d44 79db 3a44 b00d 4843 5661 cc44
000000c0: 1a2c 8344 88fe 2e43 a55a 2444 a3e3 5344
000000d0: 57a5 0c44 8b1f 5344 cf18 9144 f912 b443
000000e0: c1c5 7144 359d ba43 e67c 8144 0092 6945
000000f0: 6b41 6444 c2ac 8643 dbb0 f844 a421 8644
00000100: 5a41 0144 6852 a444 6390 7243 91e5 6944
00000110: 4d77 1440 faef 4243 7679 9644 497f 4041
00000120: 11c4 8f43 b290 7144 fac4 9f44 0db8 3c44
00000130: bc43 7e43 84a2 8944 808a 2943 ac45 7643
00000140: 9d8e b044 2dd0 0945 a84f 0f44 0c74 5b44
00000150: 4c2c 7f40 3117 fc43 aae1 4342 a52a 8a43
00000160: 37c5 2544 b8a4 4344 ff37 c943 0c8d 4744
00000170: 80b8 fc43 aa1b e342 181d 2744 c533 9742
00000180: 0425 8143 3307 e042 7b62 ee43 d294 2945
00000190: 8e0a 0d44 65c2 1f44 d5ba b343 9ecf 5944
000001a0: 2932 2044 5cb5 1544 2d62 c142 eed6 d944
000001b0: 9db2 3244 50f1 c443 8be1 c142 cf52 f343
000001c0: cb43 1044 1225 e743 7af8 cb41 6bed e443
000001d0: a24f 8444 d788 9543 8aba 8043 d09d e243
000001e0: 5dcc 9343 65f0 da44 de5e ed43 d8b7 ae44
000001f0: aa0d 1843 c373 5044 c3af 4744 4443 8544
00000200: ccf5 8244 cd23 9d43 c40b ed44 2758 9a44
00000210: 3895 1d44 3838 0344 d99b 5942 bea1 db43
00000220: 8b8e a044 8fb6 1544 3968 bf44 73ee 0f42
00000230: 05b2 6e44 37b0 1044 9161 7544 07eb fb42
00000240: 9102 4244 43d3 5144 4300 a840 2960 f343
00000250: 370a 0344 b299 3b44 6e9b 8844 b8e4 7744
00000260: b56f 8744 9f08 dc44 d3f8 2244 3e04 9443
00000270: 907c 3c3f 700e d044 5ddc 2644 c030 9d43
00000280: 9297 263f b78e 0b44 c87d 4f44 e0cc d240
00000290: 133d 9040 637e 1a44 7d1c 8e43 5c95 2844
000002a0: 8069 ad44 a65d 1244 7693 0445 0909 2a43
000002b0: 01ce c243 3013 8643 f863 e444 8833 c044
000002c0: 3a34 cc42 702e 3144 1983 4a44 fbcb 5a44
000002d0: 48dd 9244 a2bc 7b44 067a b743 d8d8 5444
000002e0: aedb f044 37e6 1d44 e96c 9943 98b3 a744
000002f0: 78bf 8f44 cdc4 2144 87f4 3343 3afc bd44
00000300: 947e e343 200b 1744 66b0 8044 9233 b443
00000310: 4b07 1e44 338c ad43 0bf8 c743 d734 b444
00000320: a1b8 6944 53eb 4144 0357 9b44 a394 1044
00000330: 2912 8842 b7f1 d143 ed1b 3044 f61d be44
00000340: c592 1643 2c90 c643 d3e4 8b43 7d12 7a44
00000350: 1f79 0344 8cab 4e44 5a4a cc44 68e6 3b44
00000360: b20e 8842 e62d 5c44 4b26 a444 d99e b844
00000370: e0e4 d743 8c1e 1444 b949 2644 850d ea42
00000380: 7f09 e540 e6f3 f444 0b96 8f43 9948 2d44
00000390: 16ba 3244 0c99 9543 df59 8f44 e5b7 a243
000003a0: d799 9642 9372 4344 c004 6e44 0cd7 6643
000003b0: f2cf af44 fbf4 9c43 4513 bf44 4e44 1744
000003c0: 5fa3 a543 dcdf 4843 3e68 0f44 44cd 7344
000003d0: 508c 2942 5166 9343 0b47 b244 2e38 9644
000003e0: 817d f143 78f3 7a44 47f1 e343 868c 3544
000003f0: 5458 8c44 a270 5244 890f c043 1495 a444
1330.1566 1500.8595 653.4905 394.0545 109.05917 433.99533 650.1945 683.2272
492.49097 363.90634 892.04517 975.54254 333.04935 178.65543 1062.1362 228.90552
669.07635 149.50551 901.7289 379.07095 228.59679 20.023983 459.5722 265.89136
36.8018 430.1474 1096.1907 587.19495 699.9659 224.06429 808.48413 1033.1455
862.1073 448.92416 483.31448 391.88696 589.41815 811.16724 598.91724 869.53015
98.13866 634.47217 395.08444 421.4085 692.3242 747.42926 200.05347 1635.0417
1049.3782 174.99426 657.4163 847.5568 562.58344 844.49286 1160.7753 360.14822
967.0899 373.22818 1035.9031 3737.125 913.02216 269.34967 1989.5267 1073.0513
517.0211 1314.5752 242.56401 935.587 2.3197815 194.93741 1203.7957 12.0310755
287.53177 966.26086 1278.1555 754.8758 254.26459 1101.0786 169.54102 246.27216
1412.4567 2205.011 573.2446 877.81323 3.9870787 504.18118 48.970375 276.33316
663.0815 782.5737 402.43747 798.20386 505.4414 113.55403 668.4546 75.60111
258.28918 112.01406 476.76938 2713.3013 564.1649 639.0374 359.45963 871.244
640.78375 598.83374 96.69175 1742.7166 714.79083 393.88525 96.94051 486.64694
577.05927 462.2896 25.496326 457.85483 1058.4885 299.06906 257.45734 453.2329
295.5966 1751.5123 474.74115 1397.7451 152.05338 833.8088 798.7463 1066.102
1047.6812 314.2797 1896.3677 1234.7548 630.33154 524.8784 54.402195 439.2636
1284.4545 598.8525 1531.257 35.98286 954.78156 578.75336 981.5245 125.95904
776.0401 839.30096 5.250032 486.75125 524.1596 750.4015 1092.8572 991.5737
1083.4908 1760.2694 651.8879 296.03314 0.7362757 1664.4512 667.4432 314.38086
0.6507503 558.2299 829.96533 6.587509 4.5074553 617.9748 284.22256 674.33374
1387.2969 585.46326 2121.2163 170.0353 389.6094 268.1499 1827.124 1537.6104
102.102005 708.7256 810.0484 875.1872 1174.915 1006.9474 366.9533 851.3882
1926.865 631.5971 306.85086 1341.6123 1149.9834 647.075 179.95518 1519.8821
454.9889 604.1738 1029.5125 360.4029 632.11395 347.0953 399.93784 1441.6512
934.8848 775.67694 1242.7191 578.32245 68.03547 419.8884 704.43634 1520.9363
150.57332 397.12634 279.7877 1000.2889 525.8925 826.6804 1634.3235 751.6001
68.0287 880.71716 1313.1967 1476.964 431.7881 592.4773 665.1519 117.026405
7.157409 1959.6218 287.1722 693.13434 714.9076 299.19568 1146.8085 325.43668
75.30047 781.7902 952.0742 230.84003 1406.4983 313.9139 1528.6022 605.06726
331.27634 200.87445 573.6288 975.2073 42.387024 294.79935 1426.2201 1201.7556
482.9805 1003.8042 455.88498 726.1957 1122.7603 841.7599 384.12137 1316.6587

fc2.weight f4 [300, 400]
00000000: 3e58 aa3c 4293 ce37 c31b 13bc 8944 92b8
00000010: 6274 67bd 7c54 04bd 4a25 ffbc 2c40 70bd
00000020: b562 88bc 75e3 d5bc 4047 b5bc 80dc c7bc
00000030: 2318 b43c 4b4f 4bbd 162d 023d 0a03 aabc
00000040: 9ca5 103d 180c 713c a083 f13c c75a 543b
00000050: e034 1f3b 1ffe 683c ea09 36bd eecc 8a3c
00000060: 8f23 d8bc 7edf 873c 22aa 3a3d 4349 f3bc
00000070: 7a52 a83c 0b10 5dbb 8b6c 07bd 03fb 37bd
00000080: 548a 0c3d 80a8 e7bc e7fd babd c572 273d
00000090: 8bb2 293c dbe5 193d 792a a7bc 1144 6cbc
000000a0: 11a3 fe3c 6ac3 9d3c b3c2 05bc 4c11 bf3c
000000b0: 9f14 453c 922d cfbc 5742 8abd 7480 bbba
000000c0: b341 763d 217e 60bd 687b c43b a46a bfbc
000000d0: d169 2abd 323e a0bd 1310 8d3b 4c23 243d
000000e0: d8e3 8cbd 4495 56bd 3467 423d 338b 56bd
000000f0: 8cd7 223d 128d 7bbd 6546 bbbc 9d9e b8bd
00000100: 5010 af3a a1a6 133b 0df8 80bd 632f 933d
00000110: 5751 1fbd f48e a7bc 59ba 1abd 83cd 5b3d
00000120: 8eee 80bd 2383 82bc 299b 0ebd 6d8b 09bd
00000130: 35e6 203d 9922 7bbc 73e7 84bd 44c2 67bc
00000140: 339d a5bc 7c55 70bb 1907 57bd 020a 173d
00000150: 2515 21bd 7d6a 9ebb 7a9d 0cbd fa24 bc3c
00000160: 86ba 52bd 46d2 7b3c dcc1 b5bd a882 3dbd
00000170: a1ba 323d ef98 cc3c ada0 f9bb 15ae 0bbc
00000180: 7c64 70bd 721d 88bc 3e00 2abd f370 3bbd
00000190: 559c a1ba a8e1 f73c 48b2 ac3c 679a 423d
000001a0: b0dc 6abd 2bd0 233b ed76 53bd 4ca3 edbc
000001b0: b9e6 023c 19f9 923b 9e32 143b 5e8d 20bd
000001c0: 3789 01bd 9b2d e5ba a8f6 113c e26e ec3b
000001d0: 3d5d e3bc c207 4ebc 6d83 0ebd 424e 90bd
000001e0: 73eb 50bb 0aa3 4abd a4fa b63c c6be 98bc
000001f0: 4f2d 773c 8ea0 073d 1e86 ccb9 3efe c2bd
00000200: 21f0 fc3c 9f90 cc3c a5c1 8fbd 6c8e 0fbd
00000210: 55ad 0abc c056 95bc 304e 0abc bc62 2f3c
00000220: 09fb 2a3d ceac a0bd e424 11bd b054 b1bd
00000230: b0f2 5f3b a693 5dbd c835 87bd 5ab9 0dbb
00000240: f4dc 44bb 999f 7abd cf75 17bc 8237 18bd
00000250: a542 c8bc c8f9 00ba 366b b6bc e00f 083d
00000260: f57a ddbc 7767 16bd ab97 e83c 33b0 94bd
00000270: ba8b 50bd 6aac c8bc 0a4c b5bd 6d6e aabc
00000280: caf2 123c e775 98bc c252 78bd 8cc3 1a3d
00000290: 02e5 253d fd21 76bd fba2 57bd f50e 74bd
000002a0: 42d9 1fbc df26 88bb 9a40 0abd 144f 8d3c
000002b0: 8f37 97bc fdf4 65bc bf41 97bd ddd8 31bc
000002c0: 4d49 dfbb e329 a8bc 6e3b 99bc 8a93 87bd
000002d0: 5944 abbd a1a1 16bd 4eb8 d1bc 9e89 0a3d
000002e0: 5903 92bc 0909 5cba f63a 6dbd e60d 42bd
000002f0: e070 52bd eab9 8abd d115 393d 53c2 983c
00000300: cabb f5bc 4c06 e5bc a4b7 e03b d392 013d
00000310: 5157 0c3a 7184 3dbd cd39 893c bd24 32bd
00000320: b285 8dbd e008 43bc 5190 8e3c d3a5 4fbd
00000330: dfed 44bd 0c0e 94bd f607 b1bd 2604 a3bc
00000340: 6490 88bd 3d1d b63c 0daf fa3a 04ef 04bd
00000350: 23a1 13bb 1cc7 09bd 48ea 3abd ab41 39bd
00000360: d178 bebb fe3f 9b3c c7fd 4a3b b1a5 3cbd
00000370: d348 9cbc 2626 e53c b337 cabc 6371 833c
00000380: 3f28 9abc 6fef 38bd e2a3 4b3c a5d2 2bb9
00000390: f6a8 333d c2b0 08bd 4ed9 96bd a982 393d
000003a0: eff7 203c 2cb1 56bc cb9d 74bd 189f bbbd
000003b0: fc54 4f3d 8b49 163d aa5a d6bc f9fc 15bc
000003c0: bd20 38bd 0888 36bd 1a5e dabb 02bf 85bd
000003d0: 1024 96bd 8542 f63c 9a79 7bbd d728 19bd
000003e0: 1f58 cdbb 5d8e 8abd 67e3 d93c bd41 13bd
000003f0: 01fc 443b 2af2 92bd f6af a1bb 1cef f53c
0.02079403 2.4625686e-05 -0.008978787 -6.974588e-05 -0.056507476 -0.032307133 -0.03114571 -0.05865495
-0.01664863 -0.026109437 -0.022128701 -0.024397135 0.021984166 -0.049636167 0.03178128 -0.020753402
0.035314187 0.014712356 0.029481709 0.003240274 0.002429299 0.014220743 -0.04444305 0.016943421
-0.026384143 0.016586062 0.045572408 -0.02969802 0.02054714 -0.0033731486 -0.0330625 -0.044917118
0.034311607 -0.02827859 -0.09130459 0.040880937 0.010357509 0.037572723 -0.020405995 -0.014420525
0.031083615 0.01925822 -0.008164096 0.023323677 0.012028842 -0.025290284 -0.067509346 -0.001430525
0.06012125 -0.054807786 0.0059961565 -0.02336628 -0.04160482 -0.07824363 0.0043048947 0.040072724
-0.06879395 -0.052388445 0.047461703 -0.052378844 0.039756343 -0.061413832 -0.022860715 -0.09014628
0.0013356302 0.0022529738 -0.06297312 0.07186773 -0.03889593 -0.020453908 -0.03777537 0.053662788
-0.06295501 -0.015931671 -0.03481594 -0.033580232 0.039282043 -0.015328073 -0.06489458 -0.014145438
-0.02021656 -0.0036672046 -0.052497003 0.03687478 -0.039326806 -0.0048344717 -0.03432987 0.02296685
-0.051447414 0.015369957 -0.08874866 -0.04626718 0.043635014 0.024975268 -0.007618031 -0.008525391
-0.05868958 -0.016615603 -0.041504137 -0.045762014 -0.0012329916 0.030258968 0.021081105 0.04751053
-0.05733937 0.0024995904 -0.05162709 -0.02900853 0.007989579 0.004485261 0.0022613178 -0.03919732
-0.031625 -0.0017484905 0.008908905 0.0072153667 -0.02775442 -0.012575092 -0.034793306 -0.070461765
-0.003187862 -0.049471892 0.022336312 -0.018645655 0.015086486 0.0331121 -0.00039009837 -0.09521149
0.030876221 0.024971304 -0.07019357 -0.035047933 -0.008464177 -0.018229842 -0.008441493 0.010704692
0.041743312 -0.0784546 -0.035435572 -0.08658731 0.0034171753 -0.054095887 -0.06602055 -0.002162537
-0.0030038925 -0.06118736 -0.009244396 -0.03716231 -0.024445841 -0.0004920033 -0.022267919 0.033218265
-0.02703617 -0.036719766 0.028392633 -0.0726017 -0.050914504 -0.024496276 -0.08852394 -0.020804608
0.008969018 -0.018610908 -0.0606258 0.037784144 0.040501602 -0.060091008 -0.052645665 -0.059584577
-0.009756388 -0.0041550244 -0.033753015 0.017249621 -0.01845911 -0.014035461 -0.07385587 -0.010854927
-0.006814158 -0.020527786 -0.018705096 -0.06619938 -0.08362646 -0.036775235 -0.025600579 0.03382265
-0.017823862 -0.00083936803 -0.057917558 -0.047376536 -0.051377177 -0.067737415 0.04518682 0.018647349
-0.029996771 -0.027957104 0.006857829 0.031634163 0.00053535873 -0.046268884 0.016751194 -0.043492068
-0.06910266 -0.011903971 0.0174028 -0.05069525 -0.048078414 -0.07229242 -0.086440966 -0.019899439
-0.06668165 0.022230739 0.0019125656 -0.032454506 -0.0022526465 -0.03363715 -0.045633584 -0.04522864
-0.0058127423 0.018951412 0.0030974017 -0.046056453 -0.019077694 0.027972292 -0.024684763 0.016045278
-0.018818019 -0.045150217 0.012429209 -0.00016386302 0.043862306 -0.033371694 -0.07365666 0.045290623
0.009824737 -0.0131037645 -0.059720796 -0.09161204 0.050618157 0.03669123 -0.026166279 -0.009154552
-0.044953097 -0.044563323 -0.00666405 -0.065305725 -0.07331097 0.030061016 -0.061395265 -0.037392464
-0.0062666084 -0.06765435 0.026597692 -0.035951365 0.0030057433 -0.071750954 -0.0049343063 0.030021243

fc2.bias f4 [300]
00000000: e2a4 ffbc 5a69 8abd 59ff 88bc 3975 acbc
00000010: 2b5d d03e a106 3fbd e72f 9cbd a164 73bd
00000020: 7220 13be 23c1 74bf ba08 80bd 23b3 97bc
00000030: 4672 efbf a720 8bbf 015c 8ebe b1f4 3abe
00000040: 5081 803d 53d1 69bf 75b5 adbc 4a82 893e
00000050: ffb4 a3be 5858 bbbd 2901 cebf a458 693e
00000060: 295e 8fbf 3aad 8fbd 68b8 b6bd d097 e9bf
00000070: cd96 98be ed6c a7be 5a8e 03be 89b1 05be
00000080: 2de7 dbbe d518 62bd 2e82 41bd 623c 4ebd
00000090: 1196 bdbd f36a 91bd 3cc3 98bd 2f3a 80bf
000000a0: c34e 9cbd 379a 8bbe f110 3ebd 2efa 4dbd
000000b0: c938 3dbd f41b 5abf 6368 42bf dbe2 b1be
000000c0: 2e44 85be 47f0 77bd 21d7 70bd 1403 4ebf
000000d0: de78 3bbd 99d4 65be b8e6 1b3e 855d 73bf
000000e0: f52d e3bd b867 9ebf cd82 c4bc d89f 79bd
000000f0: 5880 85bd af98 bebd a8b2 cdbe a5c7 2bbe
00000100: 8e52 85bf 4d04 babf 9046 9bbd 739b 40bd
00000110: a5d1 04be 9e19 c3bf b42e 3fbc 6f55 9fbd
00000120: 6dfe 3cbf ecea a1be fade 49be e03f 7fbf
00000130: 6f4a b3bd d5a1 07bf 3d35 df3c c960 e93c
00000140: 691a 08bd 0e75 45bd 8265 e63d 9fc3 9abd
00000150: ec90 5ebd bed1 7fbd a838 3bbe b122 21bf
00000160: 21bd 8fbd 46b5 7ebd 1e82 acbc 6caa 9ebd
00000170: e349 45bd 0d3d e33e f75a 94bd 66ec 98bd
00000180: 9f57 6bbe 5cce 5bbc 46d6 babc 6a8d 12bd
00000190: 2140 22c0 63ef a43e 4730 8ebe 5ce0 2abe
000001a0: f40a 90bf 27e7 a4bc e6d5 70bf 7af1 89bf
000001b0: ba6a 21bd b734 62bf 695b 53bd 5a1f fbbc
000001c0: 4ce5 9ebc bd49 2bbd 880d 05bd be77 31bf
000001d0: 8b8b b3bf d10e 9fbc 4af5 39bd b138 3cbc
000001e0: ffab 50be 6993 babd ec68 fbbf f064 703b
000001f0: 5c5f 89bf 0ff9 8cbe 8342 35bd 11e1 363d
00000200: 70f4 2dbf 6e3e ecbd 3bb0 17bd 6670 88bd
00000210: 48c9 c5bd ab2d 3abd 4e15 ec3e e483 ffbd
00000220: 1eae 2bbf aaf2 3ebf 7414 d3bb fa6b 5fbd
00000230: c04f 17be eabf 58be 119f c7bd c29a 09bb
00000240: 7909 e7bd 96ed 9cbd 0291 6bbd 5ae5 babf
00000250: 7ca3 bfbd d925 98bf 50ca e7bc 164a 1ebd
00000260: 23b8 b1bd d9dd b63d 9413 43bd 57c7 4fbf
00000270: 329b 03bd 1e9b 8bbe fd4d 77bf b367 ecbe
00000280: ad34 13bf fd27 6ebf abbb 30be 4705 2cbd
00000290: bb4c c0be fa2b d8be 314a 643e e809 82bc
000002a0: c898 49bf 1fa4 4cbd 8386 3dbc 10d6 f4bc
000002b0: 123f edbd b709 59bd 8ec0 39bd e15e d73a
000002c0: 5ff7 c7bd e73e 60bd 3286 93bf b011 37bd
000002d0: 4aa8 12bd 38bb bdbe fd33 72bf c841 103c
000002e0: b2dc 8ebd dd23 7ebf 83d8 65bd ef1b 183b
000002f0: 695d 1cbd c2e2 2fbf cbed 25be c383 89be
00000300: 04d9 25bd cbc6 d1bf e4b0 f1bf 8516 95bd
00000310: 2af6 13be 9411 ebbd f4d5 e6bd 2bbd aebe
00000320: 4125 cfbd 148e c3bd 37d4 5bbd df9a 9fbf
00000330: 280c d2bc 6e96 203f 882d 81bd 20d8 11bf
00000340: 0ed3 f7be 47af c7bd b397 b1bd 8dbe d1bd
00000350: df95 dfbd b722 86bd 7c78 03bd 3cf7 8ebf
00000360: ecc8 b7be e28f 3bbd f320 81bd 026c 2ebf
00000370: 871f 5cbf 6bb9 04bf fd20 29bf c4a4 3abf
00000380: bfc5 0bbf 3659 6f39 c89d a7be 80b0 0ebf
00000390: c60e a8bf 2293 59be 7336 32bd b9bf 29bd
000003a0: 35c7 b6bd 2a57 65bf 43d8 9fbd 4bb2 61bd
000003b0: 05bb 91bf 1071 86bc 3f77 cbbd 9d55 8cbe
000003c0: 3701 e43d 629f 15c0 b6f2 8abf 64a8 d3bf
000003d0: 1d18 98be 4142 8dbd 9595 96bf 2a7a e5bd
000003e0: ef5b d3be 3797 34bf 9d58 383f 74b6 8dbf
000003f0: b94c bdbd b456 8fbd eabe adbd ab94 babd
-0.031206552 -0.067583755 -0.016723322 -0.02105199 0.40696082 -0.04663718 -0.07626324 -0.05942214
-0.14367846 -0.95607203 -0.062516645 -0.018518036 -1.8706748 -1.086934 -0.27804568 -0.18257405
0.062746644 -0.9133503 -0.02120469 0.26857215 -0.31974027 -0.091477096 -1.6094104 0.2278772
-1.120061 -0.07015462 -0.089218915 -1.8249454 -0.29802552 -0.3270029 -0.12847272 -0.13056006
-0.4294981 -0.055199463 -0.04724329 -0.050350554 -0.092571385 -0.07100477 -0.07459113 -1.0017756
-0.0763221 -0.27266094 -0.046402875 -0.050287418 -0.046196733 -0.85198903 -0.7594053 -0.3474339
-0.2602858 -0.06053188 -0.058798913 -0.80473447 -0.045769565 -0.22444381 0.15224731 -0.95064574
-0.1109275 -1.2375402 -0.023988152 -0.060943455 -0.0651862 -0.09306466 -0.40175366 -0.16775377
-1.0415819 -1.4532562 -0.07581818 -0.047023248 -0.12970598 -1.5242193 -0.01166885 -0.07779967
-0.7382572 -0.31624544 -0.19713965 -0.9970684 -0.087544315 -0.5298131 0.027247066 0.028488534
-0.03322831 -0.048207335 0.1124983 -0.07556843 -0.054337427 -0.062455885 -0.18283331 -0.6294356
-0.07018495 -0.062184595 -0.021058138 -0.07747349 -0.048166167 0.44382516 -0.07243913 -0.074669644
-0.22982644 -0.013415899 -0.022807252 -0.035779394 -2.535164 0.32213888 -0.27771208 -0.16687149
-1.1253343 -0.020129753 -0.94076383 -1.0776818 -0.039408423 -0.88361686 -0.051600847 -0.030654598
-0.019396447 -0.04181837 -0.032483608 -0.6932334 -1.402696 -0.019416245 -0.04539994 -0.011488126
-0.20378111 -0.091101475 -1.9641395 0.0036681257 -1.0732226 -0.27533767 -0.044252884 0.044648234
-0.6795111 -0.11535345 -0.0370333 -0.06662063 -0.09657532 -0.04545371 0.46110004 -0.12476328
-0.67062557 -0.74589026 -0.006441647 -0.054546334 -0.14776516 -0.2116696 -0.097471364 -0.0020996784
-0.11281104 -0.076625034 -0.057511337 -1.4601243 -0.09357354 -1.188655 -0.028294712 -0.038644873
-0.086776994 0.08929033 -0.047626093 -0.81163543 -0.032130428 -0.27266783 -0.96603376 -0.46172866
-0.5750225 -0.9302977 -0.1725909 -0.04199722 -0.3755854 -0.4222105 0.22293927 -0.015873864
-0.7874875 -0.049961206 -0.011567715 -0.02988723 -0.11584295 -0.05298778 -0.04534965 0.0016431474
-0.09763979 -0.05474749 -1.1525328 -0.044694602 -0.035805024 -0.370569 -0.9461058 0.008804746
-0.06975688 -0.99273473 -0.056114685 0.002321001 -0.03817502 -0.6870538 -0.16203992 -0.2685834
-0.040490165 -1.6388792 -1.8882108 -0.07279686 -0.14449373 -0.11477962 -0.11271277 -0.341287
-0.101145275 -0.095485836 -0.05366918 -1.2469138 -0.025640562 0.6272954 -0.063075125 -0.56970406
-0.4840321 -0.097502284 -0.086715125 -0.10241423 -0.109172575 -0.0654959 -0.032097325 -1.11692
-0.3589548 -0.045791514 -0.06305113 -0.68133557 -0.85985607 -0.51845425 -0.6606596 -0.7290766
-0.5459861 0.0002282605 -0.32737565 -0.5573807 -1.3129508 -0.21247533 -0.043508958 -0.041442607
-0.089247145 -0.89586127 -0.078049205 -0.055101674 -1.1385199 -0.016411334 -0.09934854 -0.27409068
0.11133044 -2.337853 -1.085532 -1.6535764 -0.29705897 -0.068974026 -1.1764399 -0.112049416
-0.41281077 -0.70543236 0.72010213 -1.1071305 -0.09243149 -0.06998959 -0.084836796 -0.091103874
