critic_weights.pth (torch_old, 532680 bytes, 9 tensors)

fc1.weight f4 [400, 24]
000000 cd 8f 93 bf f0 a3 e1 3e dd c2 e1 3e 11 d3 5a be
       -1.152826 0.44070387 0.4409398 -0.21369578
000010 d2 0e 82 3f 9d f4 10 3f 27 9a fc 3e b0 1a 5f be
       1.0160773 0.5662325 0.4933636 -0.21787524
000020 40 7b 22 bf fa 5f 98 be db 62 80 3d 90 84 e5 bf
       -0.63469315 -0.29760724 0.06268855 -1.793108
000030 25 bf 4f 3e e6 71 29 40 90 54 52 3d 47 2e e5 bf
       0.2028776 2.6475768 0.051350176 -1.7904748
000040 d5 81 bb 3f d5 f0 10 3e 25 5c 8b be 62 0b 44 be
       1.4648997 0.1415437 -0.27218738 -0.19144967
000050 4e 1b 56 3f f2 7a ba 3f c9 42 84 be f0 17 0a be
       0.83635414 1.456877 -0.25832203 -0.13485694
000060 d7 8a 80 3f b1 b6 02 c0 34 d0 d0 3b 7a fa cc 3e
       1.004237 -2.0424006 0.006372476 0.40034848
000070 41 2c 00 be 57 de ed be 4c ec 2b 3d da fb da 3e
       -0.12516882 -0.46458694 0.041973397 0.42770272
000080 a7 75 18 3f 82 b1 18 c0 a1 d0 38 3c 8c 5d 6b 3e
       0.59554523 -2.3858342 0.01128021 0.22984904
000090 b0 c1 af bb 0d 0d 7d 3f 8d d6 ef bc 49 d1 7b 3e
       -0.0053636655 0.9884804 -0.02927711 0.24591555
0000a0 96 a8 7f bf aa 2a 62 c0 09 64 87 bb 92 44 9b bc
       -0.99866617 -3.533854 -0.004131798 -0.018953595
0000b0 de ec fc 3e 77 65 63 40 dc 90 89 3d 10 77 9a bd
       0.49399465 3.553068 0.06717083 -0.075422406
0000c0 04 2e 6d bf 2a 2c d0 bf 67 aa 0c 3e d7 4a ea bd
       -0.9264834 -1.6263478 0.13736878 -0.11440056
0000d0 3d a2 85 3f 34 dc 10 c0 d2 ca 06 3e 1e 54 22 be
       1.0440136 -2.2634401 0.13163307 -0.158524
0000e0 95 34 84 bf 94 29 16 c0 dc d5 35 3e 35 6e 8b 3d
       -1.0328547 -2.3462877 0.17757362 0.0680813
0000f0 09 23 40 be 02 5c 5f bf a5 ec 43 3e d8 50 b0 3d
       -0.18763365 -0.8724977 0.19133241 0.0860917
000100 ba 8c 13 c0 8a 24 32 c0 69 3f 15 bf 3a f0 c0 bb
       -2.3054643 -2.7834802 -0.5829988 -0.0058880122
000110 80 f8 0b 3f 7b 45 3f 3f f5 8d 19 bf 68 13 90 3d
       0.54676056 0.74715394 -0.59982234 0.070349514
000120 36 99 7f 3f 39 bc 70 40 33 9b 08 be a6 61 29 bf
       0.99843156 3.7614882 -0.13340454 -0.66164625
000130 64 d3 e5 3e c0 09 e7 3e c0 8c 8f bd a9 30 29 bf
       0.4488784 0.45124626 -0.07009268 -0.66089875
000140 67 00 d5 3d 26 92 ff 3f af 20 e2 bd 60 8c 28 3f
       0.10400467 1.9966476 -0.1104139 0.65839195
000150 e9 ff 30 40 12 e9 00 3e a4 db f9 bd 30 bf 2d 3f
       2.7656195 0.1258891 -0.12200096 0.67869854
000160 cf aa 36 3e c3 56 ec 3f ba 83 1f be 2c af 7e 3f
       0.17838596 1.8463978 -0.15577593 0.9948604
000170 86 4a 52 3f 84 5c cb 3f 29 77 dd bd 10 51 81 3f
       0.82144964 1.5887609 -0.108137436 1.0102863
000180 6d 1f 7c bd d8 77 00 3c 59 b5 1f bd fc ef a4 ba
       -0.061553407 0.007841073 -0.038991306 -0.0012583728
000190 27 43 0a 3d 2a 9d ff bb 1c b7 e5 3c 2e e9 5f 3c
       0.033755448 -0.007800718 0.028041415 0.013666434
0001a0 d0 8f 5c bd 68 fd 24 bb 83 a0 08 bd 57 23 56 3c
       -0.053848088 -0.0025175456 -0.0333562 0.013069949
0001b0 73 2d 4d 3b 4e 0f 6a bd a1 bf 6d 3c cd 91 34 3c
       0.0031307607 -0.057143502 0.01451102 0.01102109
0001c0 f9 38 d0 bc 1f b2 16 bd cb 96 33 bd 5e 47 2f bd
       -0.025417792 -0.036790963 -0.04384498 -0.04279267
0001d0 cc 3c 27 3d bc c7 67 bc 28 15 50 bd 24 bf 1c bd
       0.040829465 -0.0141467415 -0.050801426 -0.038268223
0001e0 31 97 b4 3f 7c a8 36 bf b6 22 df be a2 a4 0a bf
       1.410864 -0.71350837 -0.4358117 -0.5415746
0001f0 d6 7e de 3f 2f 96 83 bf 99 7e e1 be 82 f6 16 bf
       1.7382457 -1.0280207 -0.440419 -0.5896989
000200 f7 b7 3d 3f 3a 4e 68 bf 3b c2 01 3e 73 65 04 3f
       0.74108833 -0.90744364 0.1267175 0.517173
000210 a8 f6 b9 3f b8 da c6 be 1d c5 0f 3e b6 83 fd 3e
       1.4528399 -0.38838744 0.14040036 0.4951455
000220 94 67 a6 3e 34 67 ef bf d2 55 14 be ea 16 a0 be
       0.325009 -1.870337 -0.14485863 -0.31267482
000230 a8 30 3f be 15 b1 20 40 14 2e d2 bd 9e c2 a4 be
       -0.18670905 2.5108082 -0.10262695 -0.3217973
000240 1e 3d ad 3f 02 55 b3 c0 fb 41 42 be bc d5 0c 3f
       1.3534276 -5.604127 -0.18970482 0.5501363
000250 46 47 46 be 3c a0 c8 3f e0 09 38 be 00 89 16 3f
       -0.19363126 1.56739 -0.17972517 0.58802795
000260 7e 13 b7 3d b4 ca 74 c0 10 7a 38 3e ca 63 0e 3d
       0.08939265 -3.824872 0.18015313 0.034763135
000270 45 6f 6e 3e 5b ba e3 3e 4e 8f 2b 3e 4f bd 59 3d
       0.23284633 0.44478115 0.16753885 0.053159054
000280 4e 0d 26 c0 e2 f6 24 c0 78 c8 1f 3e a7 9a 61 3f
       -2.594562 -2.5775685 0.15603817 0.88126606
000290 79 ea 76 3e d2 14 8a bf ad e0 ee 3d c3 7a 6e 3f
       0.24112882 -1.0787604 0.11663947 0.9315607
0002a0 1d c5 2c 3f ad 7c 02 c0 5e 27 2a 3f 1d 67 b8 be
       0.6748827 -2.0388596 0.6646632 -0.3601617
0002b0 4a 49 0a bf 3e 79 1a c0 d5 b0 35 3f 27 6a a2 be
       -0.5401808 -2.41365 0.7097295 -0.31721613
0002c0 b0 23 42 3c 20 82 b9 bf d4 f4 4f 3e b3 a2 3a 3f
       0.011849329 -1.4492836 0.20308238 0.7290451
0002d0 9e 23 c7 3e 16 7c 10 bf 4e ef 14 3e 4e e6 4c 3f
       0.3889436 -0.5643934 0.14544412 0.8003892
0002e0 09 a5 bc bf ca 0f fe bf 84 b3 7f be d0 c7 ed 3e
       -1.4737865 -1.9848568 -0.24970824 0.46441507
0002f0 7e d3 6e 3f a5 3f c8 3f 2a 4d 55 be dc ac f0 3e
       0.9329146 1.5644423 -0.20830217 0.4700688
000300 ee 4c 93 bd 54 8e da 3f 32 2a 13 3e fb e1 f0 bc
       -0.071924075 1.7074685 0.14371565 -0.02940463
000310 44 62 cf 3f a6 ae 34 3f ed a1 24 3e e0 bc 1b bd
       1.6201863 0.7057899 0.16077395 -0.038021922
000320 3b aa 0f be 09 d4 f2 3e 9a fc 7b 3f cf cc 01 bf
       -0.14029782 0.47427395 0.98432314 -0.5070314
000330 31 f8 ea 3f d1 1c dd 3f ff a1 76 3f 1b 2c 08 bf
       1.8356992 1.7274419 0.96340936 -0.531923
000340 b6 3a 42 3f 85 f6 a0 bf 80 a2 18 bd 87 fc 63 3e
       0.75870836 -1.2575232 -0.037264347 0.222643
000350 99 1e cc 3f 9c a5 80 3f b2 b1 52 3d 71 df 2f 3e
       1.5946838 1.005054 0.051438995 0.1717508
000360 87 b2 8f 3f 7d 3f 79 bd c6 81 29 be e6 05 01 bf
       1.1226357 -0.060851563 -0.16553411 -0.50399625
000370 e6 ca de 3e 1d 7a 12 40 fe 78 65 be 36 19 13 bf
       0.43514174 2.2887032 -0.22409436 -0.57460344
000380 9c 2e cc 3e 07 3a ce bd 7f d5 08 3f b3 f6 79 bd
       0.3987931 -0.100696616 0.5345077 -0.061026286
000390 4d 22 ec 3d 41 f7 3a 40 e3 24 07 3f 4a b1 86 bb
       0.1152998 2.9213412 0.5279066 -0.00411049
0003a0 3c b5 ab 3f 45 71 43 3d 97 78 71 3e 55 eb 7d 3f
       1.3414683 0.047715444 0.23581158 0.99187213
0003b0 79 d8 ca be 9f a0 58 40 02 12 8e 3e bf 61 81 3f
       -0.3961828 3.3848035 0.27748114 1.0107955
0003c0 b4 de d4 bc 26 57 96 3f 95 d2 38 3e 36 ff 0a bf
       -0.0259851 1.1745346 0.1804908 -0.5429567
0003d0 cc cd 6e 3f ad 99 78 c0 42 39 1c 3e 36 35 01 bf
       0.9328277 -3.8843796 0.15256217 -0.5047182
0003e0 e1 a3 82 3f a1 bb 34 3f 07 dd 92 bd c5 d5 20 bf
       1.0206262 0.705988 -0.07171064 -0.62826186
0003f0 ac ef 1a 3f 12 3b ba be 1a 49 0a be b7 b1 15 bf
       0.6052196 -0.36373192 -0.13504449 -0.58474296

fc1.bias f4 [400]
000000 49 8d 7b bd bd 39 50 be d6 64 b4 bd f5 59 09 3e
       -0.061414037 -0.20334525 -0.088082954 0.13413222
000010 d4 7f 65 bd 69 d4 21 bc 1e d1 f6 bd a8 26 d3 3d
       -0.05603011 -0.009877303 -0.12051605 0.103101075
000020 24 fd 0c be b1 ca 01 bd f8 53 19 3e e7 b7 08 bd
       -0.1376844 -0.031687442 0.14973438 -0.033378508
000030 af 38 dc 3d 1d ec b1 3c c4 d1 2c 3e 1b ad 81 bd
       0.10752999 0.021719033 0.16876894 -0.063318454
000040 3a fa 33 be 43 eb 9e 3d 2e d9 81 bd dd 24 1a 3e
       -0.17575923 0.07759716 -0.06340252 0.15053125
000050 34 90 ea bd a8 ff 2a 3e 37 11 fe bd 19 b6 02 be
       -0.11453286 0.16699088 -0.12405627 -0.12764777
000060 16 61 3d 3e 82 17 15 be 8f 9a 78 3d 5c e2 68 3d
       0.18494067 -0.14559749 0.060694274 0.056856498
000070 19 e4 99 3d 68 8e 14 be d8 3e f8 3d 30 8d b7 bc
       0.07514209 -0.14507449 0.121213615 -0.02240619
000080 b6 65 0c be 4f dc 2f be b2 2f 2c be 62 a3 4e bd
       -0.13710675 -0.17173885 -0.1681507 -0.050448783
000090 3b 37 41 be f2 9f 02 be 99 90 50 be a8 45 7b bc
       -0.18868725 -0.12756327 -0.2036766 -0.015336432
0000a0 99 30 30 bd 7c 43 cc 3d b3 43 33 bd 02 f9 4a be
       -0.043015096 0.09973809 -0.043765735 -0.19821551
0000b0 e7 49 49 be 4a 5b 12 bd 62 14 36 3e 68 ad b9 3d
       -0.19657098 -0.03573159 0.17781213 0.09066278
0000c0 ae 40 f4 bc 46 82 ea 3c 9c e6 08 3e a0 4d 53 3c
       -0.029815998 0.028626572 0.1336922 0.012896925
0000d0 9b d5 47 3e ba cf 33 3e 3a 23 9c bc a1 9a e5 3d
       0.19515078 0.1755971 -0.019059766 0.11211134
0000e0 0c ba 43 be 4b 8f ab 3d 41 d7 87 bd 6f 4e a7 bd
       -0.1911394 0.0837694 -0.06632853 -0.08169257
0000f0 81 bd 42 3e 21 f4 d6 bc e9 a6 bb bc 6b e1 45 bd
       0.19017603 -0.026239457 -0.022906737 -0.04831068
000100 42 6d 0d bd f4 a1 5c bd 1c 09 7a 3c 0c a1 87 3d
       -0.034528024 -0.053865388 0.015260961 0.06622514
000110 80 32 98 bd 42 7e 1c bd bf 40 68 bd 22 21 1c 3e
       -0.07431507 -0.038206346 -0.05670237 0.15247014
000120 29 54 74 bd 11 2f 41 be f5 07 79 bb bc af 1d bb
       -0.059650574 -0.1886561 -0.0037999128 -0.0024061045
000130 ed 10 d9 bd 7c cc a2 3d 7e ca e1 bd 9d 6d cf ba
       -0.105989315 0.079491585 -0.110249504 -0.0015825514
000140 9c 0e 6f 3d f4 fb 02 3d a9 20 f6 bb aa 6f 39 be
       0.058363542 0.031978562 -0.0075112176 -0.18109003
000150 cf 57 e0 bd 85 d6 b5 3c 1b cb 3e 3e 3c ba 0b be
       -0.10954248 0.022197017 0.18632166 -0.13645262
000160 c3 02 e7 bd 67 73 2f bc c9 35 69 bd b5 dc cb bd
       -0.11279824 -0.010708666 -0.05693606 -0.09954206
000170 22 ee 67 bd 48 9f 25 be e0 f5 7f bd 7d ea 21 be
       -0.056623586 -0.16174042 -0.062490344 -0.15812106
000180 df 18 2f 3e 55 1b 31 be 73 cd 0e 3e a2 84 3b 3e
       0.17099331 -0.17295583 0.1394556 0.18312314
000190 90 d1 85 bd 5d e5 00 3e 18 ba 3a 3e b7 10 30 3d
       -0.065341115 0.12587495 0.18235052 0.04298469
0001a0 ec 25 82 3d 8a 82 2e be ae 02 95 bd f3 dd d3 3d
       0.06354889 -0.17041984 -0.07275902 0.10345068
0001b0 69 c0 62 bd da 14 1b be 75 b0 30 3d 83 41 98 bc
       -0.055359278 -0.15144673 0.043137033 -0.018585926
0001c0 a7 6e 8e bd da b6 8b 3d c6 65 9a bd 97 71 13 3e
       -0.06954699 0.068219855 -0.07538943 0.143988
0001d0 25 ba 0d 3e 9f ef cc 3d 45 72 e7 bd b1 c9 68 bd
       0.1384054 0.100066416 -0.11301092 -0.056832973
0001e0 25 f5 d5 3d a9 e5 fe bd 79 df b9 bc 37 38 47 3b
       0.10447148 -0.12446148 -0.022689568 0.0030398497
0001f0 d6 eb 43 3e 5e 0c 96 3d 89 f4 1d be 30 12 38 3c
       0.19132933 0.073265776 -0.15425314 0.011234805
000200 42 f3 14 be 55 49 24 be 66 12 3d 3e 64 0d 44 3e
       -0.1454592 -0.16043599 0.1846405 0.19145733
000210 5d 91 92 3d 0c 39 da 3d 4f 64 6b bd 97 7f b1 ba
       0.07156632 0.10655412 -0.05746871 -0.0013542053
000220 c1 29 15 be bc 60 af 3d 9f bc cb 3c 66 29 a8 3c
       -0.14566709 0.085633725 0.024870215 0.020527553
000230 6b 4c fd 3d f8 bb d5 3d 10 b3 ee bd f5 10 04 3e
       0.12368091 0.10436243 -0.11655247 0.12897094
000240 f4 65 47 3c a2 37 a6 bd 6a 73 cd 3d 48 b1 e8 bd
       0.012170304 -0.0811608 0.10031779 -0.11361939
000250 ba 14 c0 3d d1 33 8c bd 73 f9 87 3b 67 3b ef 3d
       0.09378953 -0.06845821 0.0041496097 0.11681252
000260 ae 7b b0 bd c1 52 29 be ba 11 fd 39 f4 10 ed ba
       -0.0861734 -0.16535474 0.00048269128 -0.0018086717
000270 5e a7 45 3e d5 df 21 3e e1 f5 c8 bd c5 69 66 3d
       0.19302127 0.15808041 -0.09812523 0.056253213
000280 f8 bc 56 3d 40 39 44 be bb 24 41 3e 09 86 9f bc
       0.05242631 -0.19162464 0.18861668 -0.019473093
000290 09 8c 6a 3b db aa 39 be e1 3b 2d be 4b aa 0e 3d
       0.0035789034 -0.18131582 -0.16917373 0.034830373
0002a0 29 64 47 3e fe 08 06 be f0 07 2a be 28 75 0a 3d
       0.19471802 -0.13089368 -0.1660459 0.033803135
0002b0 9f 19 55 bd c2 0c ef 3d 43 b1 a2 3b 41 7e ea 3d
       -0.052026387 0.11672355 0.004964979 0.11449862
0002c0 9d 4f 21 3e 8f 34 8b 3d df 2e d9 bb da 31 18 be
       0.15753026 0.06797134 -0.006627902 -0.14862767
0002d0 e0 48 1a be 08 a9 2e be 13 2e 00 be 87 b7 32 3e
       -0.15066862 -0.17056668 -0.12517576 0.17452823
0002e0 31 b2 30 3e ff e5 c2 3d 90 e4 68 bd 36 9d ac 3d
       0.17255475 0.095165245 -0.0568586 0.08428423
0002f0 5e d9 31 3e ee b3 df bc 0f a1 e5 3d 2b c7 dd 3c
       0.17368075 -0.027307477 0.1121236 0.02707251
000300 e1 38 42 3e ba 6d 83 3b d9 93 1f be 8c 7f 0f be
       0.1896701 0.004010883 -0.15583743 -0.14013499
000310 4b 1d ae 3d 75 2b c4 bd e8 f4 00 3e 47 bc b7 3d
       0.08501681 -0.09578601 0.12593424 0.08971458
000320 96 05 04 be db c8 e9 3b ce ec 2d 3e de 35 4d be
       -0.12892756 0.0071345395 0.16984865 -0.2004008
000330 52 8e e5 3d 47 5c 2e be 32 6a 2c 3e a4 f3 d0 bd
       0.11208786 -0.17027389 0.16837385 -0.10202721
000340 18 ac 3e be a0 cd a2 3d f6 7c 28 3e ff 4f a4 bd
       -0.18620336 0.07949376 0.16453919 -0.080230705
000350 88 da cd bd 82 4f c5 bc ec 3d 0d 3e f8 ff d2 bc
       -0.10051447 -0.024085764 0.13793153 -0.025756821
000360 9b 2f 05 3e 67 6f 24 be 59 a8 0c be fc e3 30 3e
       0.13006441 -0.16058122 -0.13736095 0.17274469
000370 d5 1a ba 3c af 02 cf bd ed bb b7 3d 70 85 e7 3c
       0.022717873 -0.10107934 0.08971391 0.02826187
000380 3b 78 9e 3b 6f 33 91 bd 88 5a 00 3e 4c a7 13 3e
       0.00483611 -0.07089888 0.12534535 0.14419287
000390 e6 b7 b9 bc e0 cb 07 be 49 11 a0 bd f4 53 d3 3d
       -0.022670697 -0.13261366 -0.07815797 0.10318747
0003a0 b5 df 0e 3e c9 c7 e0 bd 0f fb f2 3a 7e 41 10 be
       0.13952525 -0.10975606 0.0018537956 -0.14087483
0003b0 ff b2 bf bd f1 6b 2e 3d 41 60 81 3d 54 02 b6 3c
       -0.09360313 0.04258341 0.06317187 0.022217907
0003c0 1f d1 bd 3d c9 97 24 3d 42 c1 f1 3c 1d c2 45 be
       0.09268402 0.040183816 0.029511098 -0.1931233
0003d0 a8 36 b4 3d 3e 60 10 3e db ac e4 bd 09 f8 04 bd
       0.08799487 0.14099213 -0.11165782 -0.032463107
0003e0 f4 f1 22 3c 29 63 3f 3e 3e 83 fa 3d ca d6 2c be
       0.009945381 0.1869017 0.12232064 -0.1687881
0003f0 4d bd eb 3d b0 63 af 3d f1 de 22 be 8e 68 a0 3d
       0.11510716 0.08563936 -0.15905358 0.07832442

bn1.weight f4 [400]
000000 bd 39 00 3f 0e 1f fe 3e a2 de 11 3f a1 c4 3b 3f
       0.500881 0.49633068 0.56980336 0.73346907
000010 4a 77 62 39 09 0a 2d 3f a2 66 15 3f 98 c1 ed 3e
       0.00021597478 0.6759344 0.5835973 0.46436763
000020 ef 7f 34 3f d3 97 23 3f d7 f2 bd 3e c4 74 4a 3f
       0.7050771 0.6390354 0.37099335 0.7908442
000030 4d 9a 24 3f 4b ca 29 3f 70 12 1b 3f 23 42 d5 3e
       0.64297944 0.663243 0.6057501 0.4165202
000040 92 b4 1d 3f 65 5d 21 3f 1c f3 82 3e 80 0d 1f 3f
       0.61603653 0.63033134 0.25576103 0.62129974
000050 16 8d 4d 3f 45 55 00 3f 70 dc 16 3f 76 29 53 3f
       0.80293405 0.5013011 0.5893011 0.8248514
000060 95 c4 30 3f 2c e0 87 3f 09 10 5c 3f f0 cc 2e 3f
       0.6904996 1.0615287 0.8596197 0.6828146
000070 35 c0 21 3f d9 18 0b 3f 13 0c 3b 3f 54 aa 83 bb
       0.6318391 0.5433479 0.730653 -0.0040181074
000080 95 1f 84 3f fc f7 56 3f 8c 7f 21 3f b8 83 4b 3f
       1.0322138 0.83972144 0.63085246 0.7949786
000090 d8 49 23 3f 9b 3f 18 3f 68 b0 23 3f 5d a9 12 3f
       0.6378455 0.59472054 0.6394105 0.5728968
0000a0 41 4b 2c 3f 8a 5a 24 3f eb 7c ef 3e ad c2 2e 3f
       0.6730233 0.6420065 0.46774992 0.682658
0000b0 32 f0 c6 3e 31 2c d3 3e 36 66 91 3e 67 ec 4e 3f
       0.3885513 0.41244653 0.28398293 0.8082947
0000c0 fb f5 51 3f 2b 1b fe 3e 09 a4 38 3f c3 5b 0f 3f
       0.8201596 0.49630103 0.721253 0.5599939
0000d0 fc 87 1a 3f 24 ed 29 3f 5c 1a 9f 3e c1 85 23 3f
       0.60363746 0.6637747 0.31074798 0.6387597
0000e0 7b 05 eb 3e 3b 4f d8 3e 4d 7d 1e 3f be bc 24 3f
       0.4590262 0.42247948 0.61909944 0.643505
0000f0 7f 4a 44 3f 23 ed 31 3f cb d2 fb 3e cd 94 5d 3f
       0.7667617 0.69502467 0.4918426 0.86555177
000100 4c 61 62 3f fb 71 77 3f 42 89 d4 3e c1 92 37 3f
       0.88429713 0.96658295 0.4151097 0.71708304
000110 73 13 42 3f 7c 1a f6 3e 20 0f ff 3e 69 c0 eb 3e
       0.7581093 0.4806708 0.49816227 0.46045235
000120 43 cc 2e 3f ea 51 4e 3f ef 76 42 3f 9e 74 3b 3f
       0.6828043 0.8059374 0.7596273 0.7322482
000130 0f 7d 59 3f 52 71 69 3f e1 fc 3a 3f 5a 9c 20 3f
       0.8495645 0.9118854 0.7304211 0.62738574
000140 e4 d9 a8 3e 9f 49 29 3f 43 79 6a 3f 77 a0 35 3f
       0.32978737 0.6612796 0.9159128 0.70947975
000150 40 50 d3 3a 66 37 c4 3e 76 04 3c 3f 95 32 b1 3e
       0.0016121939 0.38323516 0.73444307 0.34608904
000160 cb 41 5b 3f e8 9f 1a 3f 9e 2f 25 3f b9 92 50 3f
       0.8564727 0.6040025 0.64525783 0.8147388
000170 30 e8 15 3f fc e9 31 3f 3f 9b 1b 3f 7f 23 47 3f
       0.58557415 0.69497657 0.6078376 0.7778854
000180 7e 78 12 3f af 7d 1b 3f aa 72 71 3f 69 58 01 3f
       0.57215106 0.6073865 0.9431559 0.5052553
000190 76 b0 3f 3f 27 cf 87 3f 16 31 27 3f e4 6e 14 3f
       0.74878633 1.0610093 0.65309274 0.57981706
0001a0 9b bd fb 3e 73 ff d4 3e b7 cb a2 ba fd d4 d6 3e
       0.49168095 0.41601142 -0.0012420331 0.41959372
0001b0 40 10 be 3e 3c 28 73 3f 41 f2 22 3f 46 90 00 3f
       0.37121773 0.9498327 0.636509 0.50220144
0001c0 ab 3a 3b 3f 64 46 8f 3e d0 74 56 3f 98 b0 44 3f
       0.73136395 0.2798339 0.8377199 0.7683196
0001d0 ba a0 fc 3e fa d9 43 3f 2f 0e 69 3e b1 20 10 3f
       0.49341375 0.7650448 0.22759317 0.56299883
0001e0 13 33 44 3f e3 2b 16 3f df bc 00 3f 6a 58 9c 3f
       0.76640433 0.58660716 0.50288194 1.2214482
0001f0 8b a7 c4 3e bb 8d 36 3f 58 3c 37 3f e4 e4 94 3f
       0.38409075 0.71310014 0.7157645 1.1632352
000200 0e 80 47 3f f7 6a 32 3f fc bf ac 3e 33 4f cf 3e
       0.7792977 0.69694465 0.33740222 0.40490112
000210 a7 17 37 3f 91 3d a5 3f a6 92 26 3f 5b 5f 0e 3f
       0.71520466 1.2909414 0.6506752 0.5561425
000220 fd 91 c7 3e 3b 9c eb 3e ea e0 d7 3e b7 3e 66 3f
       0.38978568 0.46017632 0.42163783 0.89939445
000230 d6 52 33 3f 3a 86 f3 3e 19 f8 de 3e dc db 06 3f
       0.7004827 0.47563344 0.43548658 0.5267923
000240 0d be 10 3f 9a 48 48 3f 6d cd 13 3f 2b aa 21 3f
       0.56539994 0.7823578 0.5773533 0.6315028
000250 81 11 47 3f 0b a7 48 3f db b1 30 3f 21 40 23 3f
       0.77761084 0.7837989 0.69021386 0.6376973
000260 c2 33 de 3e 60 16 ec 3e 46 e5 d5 3e 47 43 f9 3e
       0.43398863 0.4611082 0.41776484 0.4868414
000270 e6 9c 7d b7 0c 4f f7 3e bd b8 9e 3e e1 f2 64 3f
       -1.5116506e-05 0.48302495 0.3100032 0.89433104
000280 5f f7 4c bc 1c 15 06 3f 0c 3d bd 3e c8 51 99 ba
       -0.01251015 0.5237596 0.36960638 -0.0011697346
000290 c3 69 b6 3c e4 88 21 3f 02 ca 07 3f d4 72 01 3f
       0.022267228 0.63099504 0.53042614 0.5056584
0002a0 d8 b0 25 3f fa ba 85 3f 94 97 09 3f 70 3c 0a 3f
       0.6472297 1.0447686 0.53746915 0.5399847
0002b0 55 63 2a 3f 62 1d 34 3f 15 11 2e 3f 74 43 31 3f
       0.6655782 0.70357335 0.67994815 0.6924355
0002c0 16 62 b2 3e 03 1b 75 3f a0 10 61 3f 64 2c c9 3e
       0.3484046 0.9574434 0.8791599 0.3929168
0002d0 38 02 ed 3e f8 00 a1 3e b5 09 1c 3f 62 07 08 3f
       0.46290755 0.31446052 0.6095231 0.53136265
0002e0 98 68 f0 3e a3 66 67 3f 12 21 2a 3f c0 53 f5 3e
       0.469548 0.90390986 0.6645671 0.4791546
0002f0 e9 cb a4 3e cc e4 6f 3e 62 3b 76 3f d2 98 0e 3f
       0.3218682 0.23427123 0.9618436 0.55701935
000300 53 56 5d 3f 41 3f 81 3f b7 19 42 3f b7 92 17 3f
       0.86459845 1.0097429 0.7582049 0.59208244
000310 0f 06 f6 3e 18 68 24 3f 6a c5 80 3f 38 57 01 3f
       0.48051497 0.64221334 1.0060246 0.5052371
000320 0b 7f 3d 3f 68 4f 2f 3f b5 67 21 3f a8 1a 1d 3f
       0.7402198 0.6848054 0.6304887 0.613688
000330 0e 46 ff 3e d4 e5 fd 3e 81 d5 58 3f f5 49 86 3e
       0.49858135 0.49589407 0.8470078 0.262283
000340 44 a4 1d 3f f8 7b 5e 3f e0 9b 32 3f a8 86 27 3f
       0.61578774 0.8690791 0.69769096 0.65439844
000350 99 11 3a 3f 33 59 13 3f cf 73 0b 3f 8d b9 38 3f
       0.726831 0.5755798 0.54473585 0.7215813
000360 00 86 c0 3e f7 38 20 3f 5c ba 4e 3f 24 6c 10 3f
       0.37602234 0.6258692 0.8075311 0.5641501
000370 2f 72 1c 3f 6c 34 82 3f 6e b0 d6 3e da 0c 13 3f
       0.6111173 1.0172248 0.4193148 0.57441485
000380 fe bf dc 3e 64 f0 f6 3e 75 69 59 3f 59 2e 2b 3f
       0.43115228 0.48230278 0.8492654 0.66867596
000390 61 da 1d 3f 3b a4 e7 3c 80 e1 47 3f 57 d3 a2 3e
       0.61661345 0.028276553 0.7807846 0.31801865
0003a0 19 45 32 3f 48 19 3a 3f 1e 27 6f 3f d9 97 eb 3e
       0.69636685 0.72694826 0.93419063 0.46014288
0003b0 a8 71 9c 3e ef 5c 32 3f 8a 66 ff 3e e6 8e 3c 3f
       0.30555463 0.69673055 0.4988292 0.73655546
0003c0 32 1d bb 3e 66 04 53 3f 92 fc fb 3e d4 82 5f 3f
       0.36545712 0.82428586 0.49216133 0.87309
0003d0 0c ae a1 ba 3c 3a 37 3f 74 cf 10 3f 0b f8 f0 3e
       -0.0012335195 0.71573234 0.5656655 0.47064242
0003e0 18 02 01 3f 71 ba f4 3e 15 70 b1 3e 83 89 53 3f
       0.5039382 0.47798494 0.34655824 0.826317
0003f0 d0 af 29 3f 6a 71 84 3f 08 a5 fa 3e 00 b9 1f 3f
       0.66283894 1.0347111 0.48954034 0.6239166

bn1.bias f4 [400]
000000 b5 37 b7 be ff 82 73 3e f0 e9 ef be a8 d8 6c bf
       -0.3578469 0.2378044 -0.46858168 -0.9251809
000010 7c 85 07 bd ad c5 0b bf 20 1c 0d bf 9b 3b 93 be
       -0.033086285 -0.54598504 -0.5512104 -0.28756413
000020 58 18 5a bf 23 40 01 bf 50 cd 82 be a7 ce 48 be
       -0.85193396 -0.5048849 -0.25547266 -0.19610082
000030 4c f0 0f bf 47 c1 ee be a9 b7 17 bf d8 28 de be
       -0.5622604 -0.46631834 -0.5926462 -0.43390536
000040 79 26 de 3e 39 ab 10 bf 07 90 a7 bd 52 b0 20 bf
       0.43388727 -0.56511265 -0.08181768 -0.62769043
000050 9a ad 65 bf bf 79 2a bf b5 8d 07 bf a5 9f 92 bf
       -0.8971802 -0.6659202 -0.529506 -1.145497
000060 79 5a 8b be 54 83 78 be d7 bb 8b bf b9 7d c3 be
       -0.27217463 -0.24268848 -1.0916699 -0.38181856
000070 8e 14 ac be 9a dd 57 be 03 7c 1e bf 8f 7a fe bc
       -0.33609432 -0.21080628 -0.61907977 -0.0310643
000080 c2 9d cb be 93 ae 0a bf f0 e7 96 bc 30 cb db be
       -0.39768797 -0.5417263 -0.018421143 -0.42928457
000090 7e 00 4c bf d1 88 e4 be 3b 30 40 bf bc 47 06 bf
       -0.7968825 -0.44635633 -0.75073594 -0.5245321
0000a0 e3 43 29 bf d3 fd 3c bf 82 6b e8 bd 6b f4 09 bf
       -0.6611921 -0.73824805 -0.113486305 -0.5388858
0000b0 83 c9 29 be f0 96 cb bd 9c 58 a2 bd d4 a7 ca be
       -0.16580777 -0.099408984 -0.07927057 -0.39581168
0000c0 3b 95 0a bf 07 76 5e be 3d 0b 4f bf 5f 6c 16 bf
       -0.5413396 -0.21724711 -0.80876523 -0.5875911
0000d0 01 df 36 bf f6 0e e6 be c2 dc af be 93 09 5b bf
       -0.71434027 -0.4493329 -0.34348112 -0.85561484
0000e0 42 be c5 be 4f cd c3 be 23 ce 6c bf 7e 65 5a be
       -0.38621718 -0.38242576 -0.9250204 -0.21327779
0000f0 7a a2 83 be 40 28 70 be d1 5b bf be c8 8c 6f bf
       -0.25709897 -0.23452854 -0.37374738 -0.9357419
000100 c6 13 15 bf cc 7a 95 bf 98 e2 ae be ee 3d bb be
       -0.58233297 -1.16781 -0.34157252 -0.36570686
000110 f2 ae 72 bf 93 3c 55 bb 22 b0 06 bf 05 e4 42 bf
       -0.94798195 -0.0032537326 -0.5261251 -0.7612918
000120 b5 2e b0 be fe ad 70 bf da f7 4f bf 6d 6b 48 bf
       -0.34410635 -0.9401549 -0.81237566 -0.7828892
000130 ed be 1f bf 4e 1b 47 bf 57 f3 dd be 3c 1d d0 bf
       -0.62400705 -0.7777604 -0.43349716 -1.6258922
000140 28 77 cb be 1c 6f da be cc 6b 7a bf f5 ea 2d bf
       -0.39739347 -0.42662895 -0.97820735 -0.6793664
000150 07 fd 23 bc 79 f4 9b bb c4 44 53 bf dc 18 01 bf
       -0.010009057 -0.004759368 -0.82526803 -0.5042856
000160 5b 8c 85 bf a9 54 c5 be bc 92 36 bf 85 28 8f bf
       -1.0433458 -0.38541153 -0.7131765 -1.118424
000170 38 00 81 bf a4 1d 4d bf c7 ef 0a bf 62 f6 6d bf
       -1.0078192 -0.80123353 -0.5427212 -0.92954075
000180 fa ed ae be c7 30 02 bf 2c 42 b9 be cc 7f 02 bf
       -0.34165937 -0.5085568 -0.36183298 -0.5097625
000190 1a 91 59 bf 61 3b 9e bf 9e 98 82 bf a3 88 54 bf
       -0.8498703 -1.2361871 -1.0202825 -0.8302099
0001a0 1d 37 c4 bd 6b 5f 71 be 28 f9 14 bc b2 b8 b7 be
       -0.095808245 -0.23571555 -0.009092607 -0.358831
0001b0 f9 96 5c be 03 bc ec be b2 53 23 bf 53 a0 92 be
       -0.21541966 -0.46237192 -0.63799584 -0.28637943
0001c0 f3 ee 8c 3c ae 4e 10 be 4e 5d 28 bf d7 65 98 bf
       0.017203784 -0.14092514 -0.6576737 -1.1906079
0001d0 71 8a 02 bf 64 2c 81 be c1 c3 52 bd 76 61 30 bf
       -0.50992495 -0.2522918 -0.051456217 -0.68898714
0001e0 75 1e 0f bf d0 85 ef be 28 d5 2d bf 4e 1e 4f bf
       -0.5590585 -0.46781778 -0.67903376 -0.80905616
0001f0 8a ff d2 bd d1 9e 01 bf 53 1d 49 bf fe 25 2a bf
       -0.103026465 -0.5063296 -0.7856037 -0.6646422
000200 57 af 3a bf 27 1b 6d bf 43 e5 c6 bd db 25 3e 3d
       -0.729238 -0.92619556 -0.09711697 0.04642282
000210 bf 58 f1 be 9f ea a6 bf 92 e0 81 bf b2 4b 96 be
       -0.4713802 -1.3040351 -1.0146658 -0.29354626
000220 be 95 50 be 24 fd 9f be 32 9a f7 bd 48 de 46 bf
       -0.20369622 -0.31247818 -0.12089957 -0.77682924
000230 a1 9a 30 bf 24 57 76 be 0e c8 be be d3 aa 04 be
       -0.68985945 -0.24056679 -0.37262005 -0.1295579
000240 8c 15 08 be 51 72 f3 be b7 68 89 bf 33 55 16 bf
       -0.1328947 -0.47548154 -1.0735081 -0.58723754
000250 43 17 65 bf d9 8a 2a bf 07 b3 84 bf e4 5f d3 be
       -0.8948862 -0.66618115 -1.0367135 -0.41284096
000260 8a b8 aa be a0 1b 44 3d 68 3d 9a be b9 67 e1 be
       -0.33343917 0.047877908 -0.30124974 -0.44024447
000270 f5 3c 00 bd 9c 24 6e be 05 3d a1 bd bd 52 6f bf
       -0.031308133 -0.23256153 -0.07872967 -0.93485624
000280 94 b6 46 bd ef 83 7a be 65 6e 28 be c4 dd 1e be
       -0.048513964 -0.24464391 -0.16448362 -0.15514284
000290 01 ab cb bd 02 a4 4c bf 1d b4 b8 be c2 6b c5 bc
       -0.09944726 -0.79937756 -0.36074916 -0.024099234
0002a0 a1 63 29 bf 53 f1 b0 bf 1e 36 0b bf 15 df 8b bd
       -0.66167647 -1.3823646 -0.5437945 -0.06829659
0002b0 a1 e8 ef be f3 99 49 be 6e 1a 58 bf 6a 0f 74 be
       -0.4685717 -0.19687633 -0.8441533 -0.23834005
0002c0 9d 58 f9 be f8 e0 0b bf 9e 9b 42 bf 49 26 92 be
       -0.4870042 -0.5464015 -0.76018703 -0.28544834
0002d0 ad 92 9f bd 22 4f 23 be 98 b8 be be 63 0b d7 be
       -0.07791648 -0.15948156 -0.3725021 -0.42000875
0002e0 89 5b d0 be 10 14 76 3e a1 a6 86 bf 86 3d bd be
       -0.40694836 0.2403109 -1.0519601 -0.36961
0002f0 df 56 9c 3d 82 84 d0 bd f6 a1 f9 be 9d 45 9f be
       0.07633757 -0.10181524 -0.4875638 -0.31107798
000300 99 7e 49 bf 0f c9 6d bf 6e f3 41 bf 42 3d 0d bf
       -0.787088 -0.92884916 -0.7576207 -0.55171597
000310 16 fa e6 bd 92 76 94 bf d4 30 8c bf 14 d2 8e be
       -0.11278169 -1.1598685 -1.0952401 -0.27894652
000320 9e 07 34 bf e1 f3 6c bf df 0e a8 be 90 52 76 bf
       -0.7032412 -0.9255963 -0.32823846 -0.9621973
000330 f8 b8 b7 be e9 e7 9f bd fa 79 58 bf fe 47 4f 3d
       -0.35883307 -0.07807905 -0.8456112 0.050605766
000340 55 f6 36 bf b6 9d 3f bf e0 ee fb be d0 8f 10 bf
       -0.7146962 -0.7485002 -0.49205685 -0.5646944
000350 70 5b 53 bf 4f 32 83 bf ea d6 bb be ec a0 17 be
       -0.825614 -1.0249728 -0.36687404 -0.1480748
000360 12 37 fb be 01 cb dd be db 70 83 bf d5 50 bc be
       -0.49065453 -0.43318942 -1.0268816 -0.3678042
000370 7c e0 3d bf b0 1f ed bf 19 fa ec be 80 0c ce be
       -0.7417066 -1.8525295 -0.4628456 -0.40243912
000380 9c 27 c6 be 35 e1 bb be 7b f2 67 be 02 e5 57 bf
       -0.38702095 -0.36695257 -0.22651093 -0.84333813
000390 08 98 57 bf 4f 69 53 be 3f 1d 1c bf 67 f1 c8 bd
       -0.84216356 -0.20645641 -0.60982126 -0.09811669
0003a0 96 bf 99 be 6f ff 84 bf ca 4b 66 bf 3e 71 cb be
       -0.3002898 -1.0390452 -0.89959395 -0.39734834
0003b0 85 05 98 bc 71 21 15 be 72 f9 ff be 44 f3 b4 be
       -0.01855732 -0.14563538 -0.49995 -0.35341847
0003c0 c4 fc 93 be f6 9e f5 be e1 7b 9d be a8 eb 91 bf
       -0.28903782 -0.4797284 -0.30758575 -1.1400042
0003d0 84 f9 c4 bb 80 7a 0f bf 04 f3 48 bf 9e b3 02 be
       -0.00601119 -0.56046295 -0.7849581 -0.12763831
0003e0 3d 72 5b 3d 93 62 64 be 7f 20 59 be 2e 9e 6c bf
       0.053575743 -0.22303228 -0.21203803 -0.92428863
0003f0 b4 a5 0d bf 10 b8 74 bf c6 0f 15 bf a6 2e 1f bf
       -0.5533097 -0.9559336 -0.58227193 -0.62180555

bn1.running_mean f4 [400]
000000 09 a5 8f 41 10 96 68 41 4c 58 ff 41 19 d6 22 c1
       17.955584 14.536636 31.918114 -10.17727
000010 5d e5 39 3f e8 fc 5d c1 94 0f b6 41 f6 73 ed 40
       0.72615606 -13.874245 22.757607 7.4204054
000020 3a a6 10 41 64 9e ba 40 26 a1 1a c2 2c f0 2c 42
       9.040583 5.831835 -38.65737 43.234543
000030 9f fa 12 c2 a8 4e 3e 41 1b 16 0c 41 fe 5c 03 c2
       -36.744747 11.894203 8.755397 -32.840813
000040 63 a5 66 41 ec 09 58 c1 b2 9f 87 c1 48 9e 00 c2
       14.415378 -13.502422 -16.952976 -32.15457
000050 af a1 a2 c0 fa 4d 06 c2 53 4d 6a 41 e9 c2 62 41
       -5.082237 -33.57615 14.643878 14.1725855
000060 25 c9 b8 3e fb 69 09 bf e3 c7 dd 40 e9 4c 63 c0
       0.3609096 -0.5367734 6.93065 -3.5515692
000070 e1 53 08 41 7c 45 da 40 49 74 ab 41 82 1a 56 be
       8.520478 6.820982 21.43178 -0.2090855
000080 61 0c a4 41 3a c7 12 42 85 b0 fb 40 2b db e0 40
       20.506044 36.694557 7.865298 7.026754
000090 d8 71 11 41 30 20 89 c2 73 b5 72 41 df f3 f9 c1
       9.090294 -68.56287 15.169299 -31.244078
0000a0 70 3e 08 c0 6e 6d 90 3f 9e 1a 4b c0 f7 51 9b 41
       -2.128811 1.1283395 -3.1734996 19.415022
0000b0 01 7c 29 c0 41 f8 17 41 a8 af f4 c1 e4 84 f1 41
       -2.6481936 9.498109 -30.58577 30.189888
0000c0 d2 62 0f 42 03 62 d2 41 85 71 61 41 a6 75 28 42
       35.846504 26.297857 14.090215 42.11489
0000d0 2c 9e 25 c2 58 f2 55 42 2e c3 02 c1 58 48 f6 41
       -41.404465 53.486664 -8.172651 30.785324
0000e0 28 4c c3 c0 67 53 57 c2 7c e3 1b c1 56 6d a9 41
       -6.1030464 -53.831448 -9.743038 21.178387
0000f0 5e 3c 93 3f 36 db fd bd 62 2c e9 40 98 7c 95 c1
       1.1502798 -0.12395327 7.286668 -18.685837
000100 07 83 da 41 26 0a 38 41 2a 65 b6 3e 81 a5 2e 41
       27.313978 11.502478 0.35624057 10.915406
000110 99 ae 43 c1 4e b7 27 c2 8b 1d 79 c1 b8 4e 10 c2
       -12.230126 -41.92901 -15.569713 -36.076874
000120 3d 2f e1 41 ed 7a 86 41 e1 64 97 41 2a 89 55 40
       28.148066 16.810022 18.924257 3.3364968
000130 6b 3b 8a c1 a6 f3 9d 42 35 59 10 c1 c5 52 5a c2
       -17.279013 78.975876 -9.021779 -54.58083
000140 67 5c 31 c2 a0 aa 52 41 88 b5 c2 41 75 e3 db 40
       -44.340237 13.1666565 24.338638 6.8715158
000150 9f 42 58 3f 6b 42 82 40 5a df aa 41 35 bf 71 c1
       0.84476656 4.0706077 21.359058 -15.109181
000160 43 17 69 41 ed ab fe 41 70 e0 70 41 30 a9 37 c1
       14.568179 31.833948 15.054794 -11.478806
000170 59 85 40 c2 45 ab 00 42 34 31 3c c2 14 aa 00 42
       -48.130222 32.167255 -47.04805 32.166092
000180 92 37 11 c0 86 70 4e c2 a5 73 01 41 a3 d3 be 41
       -2.2690167 -51.609886 8.090734 23.853338
000190 dc 30 c6 c1 3c 2c 89 41 b2 de 6f c1 a8 b1 80 c1
       -24.773857 17.146599 -14.991869 -16.086746
0001a0 d5 39 ec 41 6e c3 f0 41 0b 6e 75 3d 73 04 cf 41
       29.528238 30.095425 0.0599194 25.877172
0001b0 f1 43 1e 41 20 27 ca 41 db ac 01 40 4d a1 07 41
       9.891587 25.269104 2.0261753 8.47688
0001c0 67 be bc be e4 f5 70 c1 4a de 2e 42 0d b1 f0 c0
       -0.36864015 -15.060032 43.71708 -7.5216126
0001d0 cc f3 0c c2 56 4c 37 42 09 2f 0b c2 8a 54 e2 3f
       -35.238083 45.824547 -34.795933 1.7682049
0001e0 3c af de 41 ea fe d7 c0 ac ad 7e c2 03 f2 38 3f
       27.835564 -6.7498674 -63.6696 0.7224428
0001f0 fd 66 0e c1 74 06 d3 41 86 85 1a 41 fa 93 8f 41
       -8.900144 26.37815 9.6575985 17.947254
000200 6f 79 fe be 33 1e f0 41 b5 bd 10 42 88 9c eb 41
       -0.4970202 30.014746 36.18526 29.451431
000210 f4 64 98 40 8c 7e 61 40 4f a8 dc c1 30 66 34 42
       4.7623234 3.5233488 -27.582182 45.099792
000220 4c 3c 9b c1 ee aa b5 c1 61 5c 50 41 12 59 c6 41
       -19.404442 -22.708462 13.022553 24.793491
000230 c5 b1 ef 41 12 65 04 c2 5a 36 52 40 03 41 69 42
       29.961802 -33.0987 3.2845674 58.313488
000240 b2 08 65 42 03 81 8d 40 b0 8f 14 c2 79 be 9d 41
       57.25849 4.4219985 -37.14032 19.718004
000250 83 65 0d 42 2f 88 ee 3f 9a 93 0b c1 de 38 98 c1
       35.349133 1.863531 -8.723536 -19.027767
000260 f2 ec 9d 41 e2 cd 44 bf 66 92 ed 41 1a b8 f7 41
       19.740696 -0.7687665 29.696484 30.964893
000270 01 81 17 3f a6 d3 18 c0 84 11 10 c2 27 b9 fc 41
       0.5918122 -2.387918 -36.017105 31.590406
000280 9e a6 e8 be 03 48 ae 40 02 6d 97 41 0d 3d 96 40
       -0.4543962 5.4462905 18.928226 4.6949525
000290 b6 ac f7 bf 21 31 6b c1 b4 a1 13 c2 fa 0e 68 41
       -1.9349582 -14.699494 -36.907913 14.503656
0002a0 01 f9 dd 41 fa 8a 84 41 46 09 92 41 f9 85 82 41
       27.746584 16.56786 18.254528 16.315416
0002b0 02 c9 1b c2 f5 01 25 42 cd a3 5c bf 38 8e 90 41
       -38.946297 41.25191 -0.8618744 18.069443
0002c0 3e 39 37 c2 69 7a 70 40 58 ce 16 42 8b 1e 05 c2
       -45.8059 3.7574713 37.701508 -33.279827
0002d0 12 8f ea 41 8a 5a 45 c2 4f ed db 41 39 2c 62 c1
       29.319859 -49.338417 27.490873 -14.135797
0002e0 83 33 39 c0 a7 b1 62 bf 3a 72 ab c0 bf 53 93 c0
       -2.893769 -0.88552326 -5.3576937 -4.603973
0002f0 08 f9 7b 41 1b 03 91 40 40 7b b5 40 c0 27 ec c1
       15.748299 4.531629 5.671295 -29.51941
000300 88 58 14 42 87 c8 67 41 f0 6f 01 42 95 6b 1c c2
       37.086456 14.486457 32.359314 -39.10506
000310 50 f0 1a 41 c1 e6 1c c1 b5 b9 00 41 c8 d2 f8 41
       9.68367 -9.806336 8.045339 31.10292
000320 cc 01 56 42 6d b6 79 c2 4a c3 43 c1 7f 46 29 c2
       53.501755 -62.42815 -12.235178 -42.318844
000330 37 8b 48 40 aa 5e 0a 41 30 b4 8c c0 bd 2f e1 c0
       3.133497 8.648111 -4.3969955 -7.0370774
000340 05 b8 2d c2 8f 93 14 42 b9 a4 04 41 8b 33 e5 c1
       -43.429707 37.1441 8.2902155 -28.650167
000350 9f de d9 40 39 f8 cb c0 a8 5b cc bf 73 a1 e6 40
       6.8084254 -6.3740506 -1.5965471 7.207208
000360 1c b6 39 c2 0d fb a1 41 55 07 9d bf d2 b4 91 41
       -46.42784 20.247583 -1.2267863 18.213291
000370 e4 70 28 c2 c5 10 46 c1 00 2e 9f c1 7a 83 15 42
       -42.110245 -12.379094 -19.89746 37.378395
000380 62 cd 78 c0 c0 07 aa c1 89 a9 32 41 52 6f 64 c1
       -3.8875356 -21.253784 11.16639 -14.277178
000390 87 1c c2 41 b6 fd ca bf 52 94 48 42 d7 e5 36 42
       24.26393 -1.5858676 50.144844 45.724453
0003a0 d0 8a d0 40 23 d9 33 42 14 27 2a 42 07 3a 1c c2
       6.516945 44.962048 42.538162 -39.056667
0003b0 e1 9b 11 c1 29 14 f3 41 5e 56 83 c1 af 95 bf 41
       -9.100556 30.384844 -16.417171 23.948088
0003c0 99 51 3b 40 9e 0c 99 41 67 81 29 42 62 05 a4 c0
       2.9268553 19.13116 42.37637 -5.125657
0003d0 11 a8 88 bd c9 e5 80 41 fd c0 48 c2 ec 82 59 41
       -0.06672681 16.1122 -50.188465 13.594463
0003e0 b5 6b 1e 40 eb f8 61 42 a7 2e 92 40 f3 b4 84 c0
       2.475324 56.493084 4.568195 -4.1470885
0003f0 39 d5 09 c2 b2 c6 9c 40 7d c0 49 c2 6b 9a 47 41
       -34.458225 4.899255 -50.437977 12.4752

bn1.running_var f4 [400]
000000 3b 6d 26 44 69 71 0f 43 17 a6 07 44 02 d3 21 44
       665.7067 143.44301 542.59515 647.297
000010 37 13 1a 40 77 11 f4 43 7c db 93 43 3b 55 1d 44
       2.4074228 488.13644 295.71472 629.3317
000020 00 9e e3 44 2b 2b 27 44 bf 93 22 44 da f0 99 43
       1820.9375 668.6745 650.30853 307.88165
000030 9a b3 0d 44 69 e2 1c 45 5c e4 da 43 d2 d9 b1 43
       566.8063 2510.1506 437.78406 355.70172
000040 5e a0 62 43 d7 fb d4 43 ca dc 30 44 43 d0 d7 43
       226.62643 425.9675 707.4498 431.62704
000050 8f 51 84 43 11 d0 71 43 54 44 90 43 01 46 b1 44
       264.63718 241.81276 288.5338 1418.1876
000060 d5 62 4e 42 b6 7c 7c 40 93 da 92 43 62 72 da 43
       51.596516 3.9451118 293.7076 436.89362
000070 48 73 66 44 ec 28 0f 44 53 45 c8 43 03 f5 56 40
       921.8013 572.6394 400.5416 3.3587043
000080 2b f3 71 43 48 12 00 44 1f 6f 26 43 0d ed 3a 43
       241.94987 512.28564 166.43407 186.92598
000090 1b ca 9b 44 69 46 fe 43 5d da 68 43 60 6d 9b 44
       1246.3158 508.55008 232.85298 1243.418
0000a0 b7 88 37 44 86 cb 31 44 45 42 9f 44 74 20 fa 44
       734.13617 711.18005 1274.0709 2001.0142
0000b0 98 5e ca 44 13 c8 0d 45 39 a0 e1 43 3d 07 c7 43
       1618.956 2268.5046 451.25174 398.05655
0000c0 57 0a 36 43 99 cc a7 44 00 eb 56 44 e3 f1 91 44
       182.04039 1342.3937 859.6719 1167.559
0000d0 3c 8a 32 44 e9 da ce 43 2f 2d db 43 35 44 c9 43
       714.1599 413.71024 438.353 402.53287
0000e0 ee e5 05 44 69 5d b6 43 23 56 82 44 3f 51 f9 43
       535.59265 364.72977 1042.6918 498.63474
0000f0 fd 77 20 42 e9 fe b9 43 11 87 27 44 88 2d da 43
       40.117176 371.9915 670.1104 436.3557
000100 6b 35 35 43 cc 05 a3 43 17 25 82 42 66 dc fd 43
       181.20866 326.0453 65.07244 507.72186
000110 9a a6 6e 44 c9 f0 cd 43 5c 40 77 44 3a 93 90 43
       954.60315 411.88113 989.0056 289.1502
000120 5f 52 34 44 39 ba f3 43 e6 56 aa 43 e0 0f 12 44
       721.28705 487.45486 340.6789 584.24805
000130 59 08 ac 43 d5 a0 37 44 b4 84 44 43 91 b4 cb 43
       344.06522 734.513 196.51837 407.41068
000140 0a 20 4b 44 2f f3 a4 43 33 8c 9a 43 6f ed c4 42
       812.5006 329.89987 309.0953 98.46374
000150 b6 05 16 40 32 2f 84 43 fe 6b e4 43 9e f9 04 44
       2.3440986 264.3687 456.8437 531.90027
000160 99 72 cb 43 3c 27 08 45 27 1b 14 45 2b 69 2b 45
       406.8953 2178.4521 2369.697 2742.573
000170 ff 04 fc 43 09 1b 0e 45 08 29 0c 44 66 32 12 44
       504.03903 2273.6897 560.6411 584.7875
000180 f4 d3 fa 44 57 77 6e 44 54 38 7f 43 98 90 71 43
       2006.6235 953.8647 255.22003 241.56482
000190 8d 42 72 44 d1 ae 2e 43 43 9f de 44 51 0f 79 44
       969.03986 174.68288 1780.9769 996.2393
0001a0 32 55 42 44 fa ae bc 44 cd d5 16 40 ee 42 97 43
       777.3312 1509.468 2.3567994 302.5229
0001b0 36 83 67 44 b9 f9 60 43 16 bf 6d 43 e9 f2 7e 44
       926.0502 224.97548 237.74643 1019.7955
0001c0 ab e1 98 41 8c b5 4b 44 80 6e 19 44 00 a8 6f 44
       19.11019 814.8367 613.72656 958.625
0001d0 9d 8c 72 44 d1 d6 89 43 85 a3 06 44 79 e5 9f 44
       970.1971 275.67825 538.555 1279.171
0001e0 11 a7 a8 44 9f a8 0f 45 5e eb 1a 44 3b f8 3b 42
       1349.2208 2298.5388 619.6776 46.992413
0001f0 ba 4d 27 44 c6 0a de 42 31 9b c3 44 5d 57 d2 42
       669.2145 111.02104 1564.8497 105.17063
000200 8d 2b 8b 43 a2 cf 0e 44 d4 e2 4e 44 e8 b4 a3 43
       278.34024 571.24426 827.5442 327.41333
000210 6a eb 36 43 cd b0 cb 42 68 87 ec 44 d6 9b 6d 44
       182.91959 101.845314 1892.2314 950.43494
000220 05 f9 ae 44 13 fb 73 44 5b 79 ae 42 2f 45 b5 43
       1399.7819 975.92303 87.23702 362.5405
000230 b3 82 b0 44 35 74 90 43 ea fa 76 43 8b 6b f0 43
       1412.0844 288.90787 246.98013 480.84018
000240 cd 80 bf 43 32 92 cf 43 46 1e e0 43 ce 0a 3d 44
       383.00626 415.14215 448.2365 756.1688
000250 8c 53 35 44 cc 1a 62 43 56 06 06 44 7e aa 66 44
       725.3054 226.10468 536.099 922.66394
000260 de c8 86 44 ee 36 aa 41 48 4c 22 44 16 d3 bb 43
       1078.2771 21.276821 649.1919 375.6491
000270 e4 a2 4d 40 75 55 3a 44 89 47 83 43 24 87 11 44
       3.213067 745.33527 262.55887 582.1116
000280 84 14 b4 40 3e af b8 43 a0 5b 92 44 3d 60 90 41
       5.6275043 369.36908 1170.8633 18.046991
000290 3d a9 b3 40 27 d6 aa 44 3b a4 6e 44 f7 0a ac 44
       5.614409 1366.6923 954.5661 1376.3427
0002a0 10 12 64 44 c9 6b 13 43 0c c5 25 44 a7 a8 7c 44
       912.2822 147.42104 663.07886 1010.6352
0002b0 25 ab e8 43 70 93 8d 43 4a 43 a4 43 23 36 81 42
       465.33707 283.15186 328.5257 64.605736
0002c0 54 26 97 43 59 a1 8a 41 f4 63 68 44 b1 40 3f 44
       302.29944 17.328783 929.56177 765.0108
0002d0 4d 23 5a 43 db 8e 0a 44 67 fc ba 43 27 23 6d 44
       218.1379 554.2321 373.9719 948.54926
0002e0 73 24 18 44 51 5c b5 41 ea 57 bc 42 cc ff 9b 43
       608.5695 22.670076 94.17171 311.9984
0002f0 f0 63 19 44 d2 09 f9 42 c9 83 46 42 6b d1 4d 44
       613.5615 124.51918 49.628696 823.27216
000300 15 6b 02 45 c3 9c 12 44 43 df 6c 43 b4 b4 59 44
       2086.6926 586.4494 236.87212 870.8235
000310 dd 5c d7 43 d0 cd 9a 43 57 2c f0 42 c7 93 ed 43
       430.7255 309.6079 120.0866 475.1545
000320 cf 7f 85 44 62 cd 53 44 8f 51 31 44 d7 6f 16 44
       1067.994 847.2091 709.27435 601.7475
000330 3a 7d b0 43 8a 6d 4d 44 5f 2e c5 43 40 f7 ef 43
       352.97833 821.71155 394.36227 479.93164
000340 aa de 68 43 77 2f 27 44 b8 9e 86 44 fc f3 3b 44
       232.86978 668.74164 1076.96 751.81226
000350 f6 3e 85 44 b4 29 ae 43 5b 3d c0 44 cc 6d 53 42
       1065.9675 348.3258 1537.9174 52.857224
000360 4c f0 76 43 5e 43 fe 43 d3 0f 79 44 94 54 9b 44
       246.93866 508.5263 996.24725 1242.6431
000370 de 84 34 44 fe 22 dc 43 c1 53 03 43 0d fa aa 43
       722.07605 440.27338 131.32716 341.95352
000380 aa ec eb 42 0f 4a d4 44 cd 4c 82 42 91 d2 03 44
       117.962234 1698.3143 65.15 527.2901
000390 10 39 94 43 a9 74 0b 41 82 1e b2 43 bb 1a 9c 43
       296.4458 8.7159815 356.23834 312.20883
0003a0 76 1f a8 42 be b9 08 44 47 6a 44 44 39 0a 0d 44
       84.06145 546.9022 785.6606 564.1597
0003b0 ec 54 b0 43 27 18 f8 43 a7 a3 ee 43 e1 63 28 43
       352.66345 496.1887 477.27853 168.39015
0003c0 99 03 b5 43 23 a2 37 42 53 9f 30 44 d5 d5 28 44
       362.0281 45.908337 706.48944 675.3411
0003d0 e8 59 81 3f 00 cb ce 43 cf c7 5c 44 4e 33 83 44
       1.0105562 413.58594 883.122 1049.6033
0003e0 b3 0e 1a 44 32 0a 71 44 82 aa 91 44 2f eb 98 43
       616.2297 964.1593 1165.3284 305.83737
0003f0 4e de a2 44 84 47 d5 42 41 8d b7 43 a1 35 8a 44
       1302.947 106.63968 367.10355 1105.6759

fc2.weight f4 [300, 402]
000000 07 68 95 bd 66 66 8f bd 3d 0e d4 bc 20 45 6e 3c
       -0.07295232 -0.07001953 -0.025885696 0.014542848
000010 82 5d 8c bc ab 37 83 bb c2 48 ea 3c 2a 5e c1 3c
       -0.017134432 -0.004004439 0.028599147 0.023604471
000020 6d 1e 9c bc 0d 80 84 bc 82 a4 53 bc ac a9 be bc
       -0.019057477 -0.01617434 -0.01291764 -0.023274265
000030 87 bb b6 b8 45 1e 3d bc e5 54 1c bc f0 0a 8b bd
       -8.713366e-05 -0.011542861 -0.009541725 -0.067891955
000040 73 f7 c8 bd 80 5a 9d bd 21 60 65 bd a5 68 45 bd
       -0.09812822 -0.07683277 -0.05599988 -0.0481955
000050 98 c8 0e bc bb be d6 ba da a0 81 3c 45 08 8d bb
       -0.008714817 -0.0016383746 0.01582377 -0.0043039643
000060 79 1e 88 bb 26 f6 30 bd 0e e3 7c bd ab 73 08 3c
       -0.0041540232 -0.043203495 -0.061739974 0.008328359
000070 8a 9f 9d bd 7b 75 c9 bd bf 23 46 bd 8c b6 94 3b
       -0.07696445 -0.09836861 -0.048373934 0.004538363
000080 a2 fd 0c bd 56 95 25 bd 4b 10 bd bd 99 84 25 bd
       -0.03442157 -0.04042562 -0.09231623 -0.040409658
000090 8b df 38 bd 00 24 03 be 82 e9 27 3d af 0e ca 3c
       -0.045135062 -0.12806702 0.040994175 0.024665205
0000a0 b3 f0 3b bd 52 c7 85 bd 7b fe d4 3b 79 a4 ed bc
       -0.045883846 -0.06532158 0.006500063 -0.02900909
0000b0 28 82 50 bd 70 15 8b bd af 79 cc bd aa 82 a4 bd
       -0.050905377 -0.06791198 -0.09984147 -0.08032735
0000c0 78 f1 dd bd 1b 95 2d 3c 15 cd f2 bc 6b a2 d3 bd
       -0.10837072 0.010594632 -0.029638806 -0.10333713
0000d0 49 dd da bb ec 7e b6 bc a5 62 4b bd c0 dd 41 bd
       -0.0066792113 -0.022277318 -0.04965462 -0.047330618
0000e0 cd 4f 2a 3c 78 ff 53 bd d1 5e 87 bd fe da 86 3b
       0.010395003 -0.051757306 -0.06609882 0.0041154614
0000f0 0d 02 f4 bc 9a 80 cf bd 4c 98 55 bd 6a f2 a8 bd
       -0.029786134 -0.10131951 -0.052147195 -0.08249362
000100 06 3d 4f 3d ac 89 75 bd 91 3f 26 bc dc 4a 3e bd
       0.050595306 -0.059945747 -0.010146991 -0.04645811
000110 12 28 e9 3c 0f 0b 79 bd 5e 74 1f bd 15 e3 a2 bc
       0.02846149 -0.060801562 -0.038929336 -0.019883672
000120 64 2a 1e bd e0 b0 cc 3b 39 bd 2a 3c 20 a4 bd bc
       -0.038614646 0.006246671 0.010421091 -0.02314955
000130 0d e6 b7 bd 37 00 c9 3b 48 d7 c8 bd 3f 69 77 bc
       -0.089794256 0.006134059 -0.09806687 -0.015100776
000140 c2 80 d0 3c 76 b3 ad bc 5d 21 2b bd 8a 9f 8c ba
       0.025452022 -0.021203738 -0.041779865 -0.0010728699
000150 ce 7f ad 3c 79 b7 aa bd 28 00 4c bd 95 cd a7 bd
       0.021179106 -0.08335776 -0.049804837 -0.081935085
000160 09 99 92 bd f6 13 b2 bd c2 a1 cf bb e9 0b cf bc
       -0.071580954 -0.086952135 -0.0063364217 -0.025274234
000170 02 51 c7 ba c7 e2 48 3c 61 2c 9b bd 2f a8 f0 bc
       -0.0015206637 0.012261099 -0.07576824 -0.029377071
000180 42 4f 70 bb 6b 25 2c bc 73 20 a7 3b 33 7e d3 bc
       -0.0036668335 -0.010506968 0.005100304 -0.025817012
000190 b1 bd a2 bb 91 9c c7 bd e3 17 9f bd eb e5 b4 bd
       -0.0049664606 -0.097466595 -0.07768228 -0.08832916
0001a0 d4 ab a2 bd 79 fc f7 3b f7 20 4a bd e6 7b a7 bd
       -0.0794293 0.007567939 -0.049347844 -0.081779286
0001b0 46 f5 ab bb 95 4a 6a bc 55 cd 38 bc b5 32 01 bd
       -0.0052477447 -0.014300008 -0.011279424 -0.0315425
0001c0 56 1e 06 bd 1e 1f 24 3c d0 54 42 bd db c6 99 3c
       -0.032743774 0.010017185 -0.047444165 0.01877158
0001d0 f9 dc 17 be 08 4c bb bb 05 5b d5 bd e0 36 80 bd
       -0.14830388 -0.0057158507 -0.10417751 -0.062604666
0001e0 fd 53 85 3a 0f c3 a3 bc 0f 01 ef bc 84 ab 1e bd
       0.0010172125 -0.019990472 -0.02917531 -0.03873779
0001f0 33 97 fb bc 4b 03 a5 bd 16 49 25 bc 14 38 95 bc
       -0.030711746 -0.08057269 -0.010088226 -0.018215217
000200 0d 3f 1b bd cb 04 03 bc 41 2c 89 bc af 41 eb bd
       -0.037901927 -0.007996748 -0.016744735 -0.114871375
000210 dd b0 9f bc 3f 11 15 bd 9b 04 b6 bd d1 55 b5 bd
       -0.019493515 -0.0363934 -0.08887597 -0.08854259
000220 da 09 82 bd ee 44 a4 3b 57 0a 41 bd 20 83 9c bb
       -0.06349535 0.0050131 -0.047129 -0.0047763735
000230 b3 2f 09 bd 98 c8 c0 bd 77 76 cc bd ed be 27 bd
       -0.033492755 -0.0941326 -0.09983533 -0.040953565
000240 eb 62 20 bd 92 a9 a5 bd bf 03 d5 bc 3f b2 40 bd
       -0.039156836 -0.080889836 -0.026002763 -0.04704499
000250 c3 7c f5 bd b3 fb 04 3d 7d 95 85 bc 80 d4 2e bd
       -0.11986687 0.0324666 -0.016306633 -0.042683125
000260 79 5e cd bd 74 f9 36 bc be f9 82 bd d8 83 c5 bd
       -0.10027785 -0.011167873 -0.06395291 -0.09644288
000270 a9 d8 03 3c 8c 14 09 bd 0a c4 d2 bc a1 41 e0 3c
       0.008047261 -0.03346686 -0.025728244 0.027375044
000280 6e f3 92 3c d7 f3 2b bd 08 e7 c2 38 fb 7e 9e bc
       0.017938342 -0.04198059 9.293674e-05 -0.019347658
000290 96 30 b4 bc cb 9b 30 bd 09 a5 a5 bd 8e c7 d7 b9
       -0.021995824 -0.043117326 -0.080881186 -0.00041156675
0002a0 27 86 9a bd a7 2b b3 bd 79 46 2e bd 90 d8 c0 3c
       -0.07545119 -0.087485604 -0.042547677 0.023540765
0002b0 40 48 9a bd 2b 10 9f 3c 14 e6 03 bd cf 30 1e bd
       -0.07533312 0.01941689 -0.03220184 -0.038620766
0002c0 5d 59 19 bd 9f 9b 0a bd e5 39 99 bd 74 d8 ec bd
       -0.03743874 -0.033839818 -0.07481746 -0.11564723
0002d0 15 b4 2e bc 85 27 05 bd fa 00 11 bd b0 d7 2f bd
       -0.010663052 -0.032508392 -0.035401322 -0.042930305
0002e0 40 1b b1 bc 53 d0 23 bd 1d d0 38 bc 40 5c 9a bd
       -0.02161944 -0.039993595 -0.011280087 -0.075371265
0002f0 74 cd 83 bc 2e 07 a6 bc d2 e9 2f be 67 2d 2d 3d
       -0.016089179 -0.020267095 -0.17179039 0.042279627
000300 9b aa 9c bd 17 b7 8e bd 71 92 70 bd 61 67 d1 bc
       -0.07649728 -0.06968515 -0.058733407 -0.02556199
000310 a0 cb 53 3c 40 07 5e bc da 42 75 bc 7c 38 71 bc
       0.012926966 -0.013551533 -0.014969552 -0.01472294
000320 e1 73 7d bd 3d 80 7d bd d6 54 d1 bd c4 16 d5 bc
       -0.06187809 -0.061889876 -0.10221259 -0.026011832
000330 8e 70 42 bd 73 3a 10 bd ed f2 97 bd dc 71 35 bd
       -0.04747062 -0.03521199 -0.07419381 -0.044298038
000340 15 b3 92 bb 70 5c d4 bd 26 0b 68 bd 64 e3 96 3b
       -0.0044769146 -0.103691936 -0.056651257 0.004604744
000350 36 d8 a3 bd 7f e6 08 bd 63 b0 2e 3c 98 a3 0f 3d
       -0.08000223 -0.033422943 0.010662171 0.035068125
000360 e9 57 92 bc b1 03 32 3d b0 3b 25 3c 00 8d a9 bd
       -0.017864184 0.04346055 0.010085031 -0.08278847
000370 37 c8 e1 bd 71 94 8a bd 57 6d 72 bd 9f 8a 41 3d
       -0.11024516 -0.06766594 -0.059186306 0.04725134
000380 7c b8 ad bd 24 29 bb bc 40 71 cc 3a 51 4e 9f bc
       -0.08482453 -0.022846766 0.0015597716 -0.019446524
000390 d0 b1 11 bd 16 59 72 bd 63 d6 b5 bd 66 88 80 bd
       -0.035569966 -0.05916699 -0.08878782 -0.06276016
0003a0 b8 06 e3 3c 0b b0 e0 bd fc a7 f8 bd b2 a4 cc bd
       0.027713165 -0.109710775 -0.121414155 -0.09992351
0003b0 ed b0 8b bd 8a a6 a8 3c 35 cf 34 bd 7a b0 33 bc
       -0.06820855 0.020587225 -0.04414292 -0.010967368
0003c0 4f 81 17 bb 74 59 19 3e a3 3a 55 bd e1 19 71 3b
       -0.0023117845 0.1497553 -0.052057873 0.0036789107
0003d0 c3 14 6b bc d4 d9 cf 3c e7 f2 a8 bd cf f3 3d bb
       -0.014348212 0.025372423 -0.08249455 -0.0028984433
0003e0 22 a9 80 bc 90 bd 78 bc be 76 8e bd f8 c7 52 bd
       -0.015705649 -0.015181914 -0.06956242 -0.051460236
0003f0 1a 70 7f bd f8 04 a6 3c 20 28 29 bb 6b 06 46 bd
       -0.062362768 0.020266041 -0.002581127 -0.048345964
